{"format": "graph-model", "generatedBy": "1.15.5", "convertedBy": "TensorFlow.js Converter v3.18.0", "signature": {"outputs": {"scores": {"name": "TopKV2:0", "dtype": "DT_FLOAT", "tensorShape": {"dim": [{"size": "1"}, {"size": "400"}]}}, "classes": {"name": "hash_table_Lookup/LookupTableFindV2:0", "dtype": "DT_STRING", "tensorShape": {"dim": [{"size": "1"}, {"size": "400"}]}}}}, "modelTopology": {"node": [{"name": "RGB/Const", "op": "Const", "attr": {"dtype": {"type": "DT_FLOAT"}, "value": {"tensor": {"dtype": "DT_FLOAT", "tensorShape": {"dim": [{"size": "1"}, {"size": "79"}, {"size": "224"}, {"size": "224"}, {"size": "3"}]}}}}}, {"name": "RGB/inception_i3d/Conv3d_1a_7x7/conv_3d/w", "op": "Const", "attr": {"dtype": {"type": "DT_FLOAT"}, "value": {"tensor": {"dtype": "DT_FLOAT", "tensorShape": {"dim": [{"size": "7"}, {"size": "7"}, {"size": "7"}, {"size": "3"}, {"size": "64"}]}}}}}, {"name": "RGB/inception_i3d/Mixed_5c/Branch_1/Conv3d_0a_1x1/conv_3d/convolution/merged_input", "op": "Const", "attr": {"value": {"tensor": {"dtype": "DT_FLOAT", "tensorShape": {"dim": [{"size": "1"}, {"size": "1"}, {"size": "1"}, {"size": "832"}, {"size": "192"}]}}}, "dtype": {"type": "DT_FLOAT"}}}, {"name": "RGB/inception_i3d/Mixed_5c/Branch_1/Conv3d_0a_1x1/batch_norm/batch_norm/sub", "op": "Const", "attr": {"dtype": {"type": "DT_FLOAT"}, "value": {"tensor": {"dtype": "DT_FLOAT", "tensorShape": {"dim": [{"size": "1"}, {"size": "1"}, {"size": "1"}, {"size": "1"}, {"size": "192"}]}}}}}, {"name": "RGB/inception_i3d/Conv3d_1a_7x7/batch_norm/batch_norm/Rsqrt", "op": "Const", "attr": {"dtype": {"type": "DT_FLOAT"}, "value": {"tensor": {"dtype": "DT_FLOAT", "tensorShape": {"dim": [{"size": "1"}, {"size": "1"}, {"size": "1"}, {"size": "1"}, {"size": "64"}]}}}}}, {"name": "RGB/inception_i3d/Conv3d_1a_7x7/batch_norm/batch_norm/sub", "op": "Const", "attr": {"value": {"tensor": {"dtype": "DT_FLOAT", "tensorShape": {"dim": [{"size": "1"}, {"size": "1"}, {"size": "1"}, {"size": "1"}, {"size": "64"}]}}}, "dtype": {"type": "DT_FLOAT"}}}, {"name": "RGB/inception_i3d/Mixed_4f/Branch_1/Conv3d_0a_1x1/conv_3d/convolution/merged_input", "op": "Const", "attr": {"value": {"tensor": {"dtype": "DT_FLOAT", "tensorShape": {"dim": [{"size": "1"}, {"size": "1"}, {"size": "1"}, {"size": "528"}, {"size": "160"}]}}}, "dtype": {"type": "DT_FLOAT"}}}, {"name": "RGB/inception_i3d/Mixed_4f/Branch_1/Conv3d_0a_1x1/batch_norm/batch_norm/sub", "op": "Const", "attr": {"dtype": {"type": "DT_FLOAT"}, "value": {"tensor": {"dtype": "DT_FLOAT", "tensorShape": {"dim": [{"size": "1"}, {"size": "1"}, {"size": "1"}, {"size": "1"}, {"size": "160"}]}}}}}, {"name": "RGB/inception_i3d/Conv3d_2b_1x1/conv_3d/convolution/merged_input", "op": "Const", "attr": {"value": {"tensor": {"dtype": "DT_FLOAT", "tensorShape": {"dim": [{"size": "1"}, {"size": "1"}, {"size": "1"}, {"size": "64"}, {"size": "64"}]}}}, "dtype": {"type": "DT_FLOAT"}}}, {"name": "RGB/inception_i3d/Conv3d_2b_1x1/batch_norm/batch_norm/sub", "op": "Const", "attr": {"value": {"tensor": {"dtype": "DT_FLOAT", "tensorShape": {"dim": [{"size": "1"}, {"size": "1"}, {"size": "1"}, {"size": "1"}, {"size": "64"}]}}}, "dtype": {"type": "DT_FLOAT"}}}, {"name": "RGB/inception_i3d/Conv3d_2c_3x3/conv_3d/convolution/merged_input", "op": "Const", "attr": {"dtype": {"type": "DT_FLOAT"}, "value": {"tensor": {"dtype": "DT_FLOAT", "tensorShape": {"dim": [{"size": "3"}, {"size": "3"}, {"size": "3"}, {"size": "64"}, {"size": "192"}]}}}}}, {"name": "RGB/inception_i3d/Conv3d_2c_3x3/batch_norm/batch_norm/sub", "op": "Const", "attr": {"dtype": {"type": "DT_FLOAT"}, "value": {"tensor": {"dtype": "DT_FLOAT", "tensorShape": {"dim": [{"size": "1"}, {"size": "1"}, {"size": "1"}, {"size": "1"}, {"size": "192"}]}}}}}, {"name": "RGB/inception_i3d/Mixed_3b/Branch_0/Conv3d_0a_1x1/conv_3d/convolution/merged_input", "op": "Const", "attr": {"dtype": {"type": "DT_FLOAT"}, "value": {"tensor": {"dtype": "DT_FLOAT", "tensorShape": {"dim": [{"size": "1"}, {"size": "1"}, {"size": "1"}, {"size": "192"}, {"size": "64"}]}}}}}, {"name": "RGB/inception_i3d/Mixed_3b/Branch_0/Conv3d_0a_1x1/batch_norm/batch_norm/sub", "op": "Const", "attr": {"value": {"tensor": {"dtype": "DT_FLOAT", "tensorShape": {"dim": [{"size": "1"}, {"size": "1"}, {"size": "1"}, {"size": "1"}, {"size": "64"}]}}}, "dtype": {"type": "DT_FLOAT"}}}, {"name": "RGB/inception_i3d/Mixed_4f/Branch_1/Conv3d_0b_3x3/conv_3d/convolution/merged_input", "op": "Const", "attr": {"dtype": {"type": "DT_FLOAT"}, "value": {"tensor": {"dtype": "DT_FLOAT", "tensorShape": {"dim": [{"size": "3"}, {"size": "3"}, {"size": "3"}, {"size": "160"}, {"size": "320"}]}}}}}, {"name": "RGB/inception_i3d/Mixed_4f/Branch_1/Conv3d_0b_3x3/batch_norm/batch_norm/sub", "op": "Const", "attr": {"dtype": {"type": "DT_FLOAT"}, "value": {"tensor": {"dtype": "DT_FLOAT", "tensorShape": {"dim": [{"size": "1"}, {"size": "1"}, {"size": "1"}, {"size": "1"}, {"size": "320"}]}}}}}, {"name": "RGB/inception_i3d/Mixed_3b/Branch_1/Conv3d_0a_1x1/conv_3d/convolution/merged_input", "op": "Const", "attr": {"dtype": {"type": "DT_FLOAT"}, "value": {"tensor": {"dtype": "DT_FLOAT", "tensorShape": {"dim": [{"size": "1"}, {"size": "1"}, {"size": "1"}, {"size": "192"}, {"size": "96"}]}}}}}, {"name": "RGB/inception_i3d/Mixed_3b/Branch_1/Conv3d_0a_1x1/batch_norm/batch_norm/sub", "op": "Const", "attr": {"dtype": {"type": "DT_FLOAT"}, "value": {"tensor": {"dtype": "DT_FLOAT", "tensorShape": {"dim": [{"size": "1"}, {"size": "1"}, {"size": "1"}, {"size": "1"}, {"size": "96"}]}}}}}, {"name": "RGB/inception_i3d/Mixed_5c/Branch_3/Conv3d_0b_1x1/conv_3d/convolution/merged_input", "op": "Const", "attr": {"value": {"tensor": {"dtype": "DT_FLOAT", "tensorShape": {"dim": [{"size": "1"}, {"size": "1"}, {"size": "1"}, {"size": "832"}, {"size": "128"}]}}}, "dtype": {"type": "DT_FLOAT"}}}, {"name": "RGB/inception_i3d/Mixed_3b/Branch_1/Conv3d_0b_3x3/conv_3d/convolution/merged_input", "op": "Const", "attr": {"value": {"tensor": {"dtype": "DT_FLOAT", "tensorShape": {"dim": [{"size": "3"}, {"size": "3"}, {"size": "3"}, {"size": "96"}, {"size": "128"}]}}}, "dtype": {"type": "DT_FLOAT"}}}, {"name": "RGB/inception_i3d/Mixed_3b/Branch_1/Conv3d_0b_3x3/batch_norm/batch_norm/sub", "op": "Const", "attr": {"dtype": {"type": "DT_FLOAT"}, "value": {"tensor": {"dtype": "DT_FLOAT", "tensorShape": {"dim": [{"size": "1"}, {"size": "1"}, {"size": "1"}, {"size": "1"}, {"size": "128"}]}}}}}, {"name": "RGB/inception_i3d/Mixed_5c/Branch_3/Conv3d_0b_1x1/batch_norm/batch_norm/sub", "op": "Const", "attr": {"value": {"tensor": {"dtype": "DT_FLOAT", "tensorShape": {"dim": [{"size": "1"}, {"size": "1"}, {"size": "1"}, {"size": "1"}, {"size": "128"}]}}}, "dtype": {"type": "DT_FLOAT"}}}, {"name": "RGB/inception_i3d/Mixed_3b/Branch_2/Conv3d_0a_1x1/conv_3d/convolution/merged_input", "op": "Const", "attr": {"dtype": {"type": "DT_FLOAT"}, "value": {"tensor": {"dtype": "DT_FLOAT", "tensorShape": {"dim": [{"size": "1"}, {"size": "1"}, {"size": "1"}, {"size": "192"}, {"size": "16"}]}}}}}, {"name": "RGB/inception_i3d/Mixed_3b/Branch_2/Conv3d_0a_1x1/batch_norm/batch_norm/sub", "op": "Const", "attr": {"value": {"tensor": {"dtype": "DT_FLOAT", "tensorShape": {"dim": [{"size": "1"}, {"size": "1"}, {"size": "1"}, {"size": "1"}, {"size": "16"}]}}}, "dtype": {"type": "DT_FLOAT"}}}, {"name": "RGB/inception_i3d/Mixed_4f/Branch_2/Conv3d_0a_1x1/conv_3d/convolution/merged_input", "op": "Const", "attr": {"value": {"tensor": {"dtype": "DT_FLOAT", "tensorShape": {"dim": [{"size": "1"}, {"size": "1"}, {"size": "1"}, {"size": "528"}, {"size": "32"}]}}}, "dtype": {"type": "DT_FLOAT"}}}, {"name": "RGB/inception_i3d/Mixed_3b/Branch_2/Conv3d_0b_3x3/conv_3d/convolution/merged_input", "op": "Const", "attr": {"dtype": {"type": "DT_FLOAT"}, "value": {"tensor": {"dtype": "DT_FLOAT", "tensorShape": {"dim": [{"size": "3"}, {"size": "3"}, {"size": "3"}, {"size": "16"}, {"size": "32"}]}}}}}, {"name": "RGB/inception_i3d/Mixed_3b/Branch_2/Conv3d_0b_3x3/batch_norm/batch_norm/sub", "op": "Const", "attr": {"value": {"tensor": {"dtype": "DT_FLOAT", "tensorShape": {"dim": [{"size": "1"}, {"size": "1"}, {"size": "1"}, {"size": "1"}, {"size": "32"}]}}}, "dtype": {"type": "DT_FLOAT"}}}, {"name": "RGB/inception_i3d/Mixed_4f/Branch_2/Conv3d_0a_1x1/batch_norm/batch_norm/sub", "op": "Const", "attr": {"value": {"tensor": {"dtype": "DT_FLOAT", "tensorShape": {"dim": [{"size": "1"}, {"size": "1"}, {"size": "1"}, {"size": "1"}, {"size": "32"}]}}}, "dtype": {"type": "DT_FLOAT"}}}, {"name": "RGB/inception_i3d/Mixed_3b/Branch_3/Conv3d_0b_1x1/conv_3d/convolution/merged_input", "op": "Const", "attr": {"dtype": {"type": "DT_FLOAT"}, "value": {"tensor": {"dtype": "DT_FLOAT", "tensorShape": {"dim": [{"size": "1"}, {"size": "1"}, {"size": "1"}, {"size": "192"}, {"size": "32"}]}}}}}, {"name": "RGB/inception_i3d/Mixed_3b/Branch_3/Conv3d_0b_1x1/batch_norm/batch_norm/sub", "op": "Const", "attr": {"dtype": {"type": "DT_FLOAT"}, "value": {"tensor": {"dtype": "DT_FLOAT", "tensorShape": {"dim": [{"size": "1"}, {"size": "1"}, {"size": "1"}, {"size": "1"}, {"size": "32"}]}}}}}, {"name": "RGB/inception_i3d/Mixed_3b/concat/axis", "op": "Const", "attr": {"value": {"tensor": {"dtype": "DT_INT32", "tensorShape": {}}}, "dtype": {"type": "DT_INT32"}}}, {"name": "RGB/inception_i3d/Mixed_5c/Branch_1/Conv3d_0b_3x3/conv_3d/convolution/merged_input", "op": "Const", "attr": {"value": {"tensor": {"dtype": "DT_FLOAT", "tensorShape": {"dim": [{"size": "3"}, {"size": "3"}, {"size": "3"}, {"size": "192"}, {"size": "384"}]}}}, "dtype": {"type": "DT_FLOAT"}}}, {"name": "RGB/inception_i3d/Mixed_3c/Branch_0/Conv3d_0a_1x1/conv_3d/convolution/merged_input", "op": "Const", "attr": {"dtype": {"type": "DT_FLOAT"}, "value": {"tensor": {"dtype": "DT_FLOAT", "tensorShape": {"dim": [{"size": "1"}, {"size": "1"}, {"size": "1"}, {"size": "256"}, {"size": "128"}]}}}}}, {"name": "RGB/inception_i3d/Mixed_3c/Branch_0/Conv3d_0a_1x1/batch_norm/batch_norm/sub", "op": "Const", "attr": {"dtype": {"type": "DT_FLOAT"}, "value": {"tensor": {"dtype": "DT_FLOAT", "tensorShape": {"dim": [{"size": "1"}, {"size": "1"}, {"size": "1"}, {"size": "1"}, {"size": "128"}]}}}}}, {"name": "RGB/inception_i3d/Mixed_4f/Branch_2/Conv3d_0b_3x3/conv_3d/convolution/merged_input", "op": "Const", "attr": {"dtype": {"type": "DT_FLOAT"}, "value": {"tensor": {"dtype": "DT_FLOAT", "tensorShape": {"dim": [{"size": "3"}, {"size": "3"}, {"size": "3"}, {"size": "32"}, {"size": "128"}]}}}}}, {"name": "RGB/inception_i3d/Mixed_3c/Branch_1/Conv3d_0a_1x1/conv_3d/convolution/merged_input", "op": "Const", "attr": {"value": {"tensor": {"dtype": "DT_FLOAT", "tensorShape": {"dim": [{"size": "1"}, {"size": "1"}, {"size": "1"}, {"size": "256"}, {"size": "128"}]}}}, "dtype": {"type": "DT_FLOAT"}}}, {"name": "RGB/inception_i3d/Mixed_3c/Branch_1/Conv3d_0a_1x1/batch_norm/batch_norm/sub", "op": "Const", "attr": {"value": {"tensor": {"dtype": "DT_FLOAT", "tensorShape": {"dim": [{"size": "1"}, {"size": "1"}, {"size": "1"}, {"size": "1"}, {"size": "128"}]}}}, "dtype": {"type": "DT_FLOAT"}}}, {"name": "RGB/inception_i3d/Mixed_4f/Branch_2/Conv3d_0b_3x3/batch_norm/batch_norm/sub", "op": "Const", "attr": {"dtype": {"type": "DT_FLOAT"}, "value": {"tensor": {"dtype": "DT_FLOAT", "tensorShape": {"dim": [{"size": "1"}, {"size": "1"}, {"size": "1"}, {"size": "1"}, {"size": "128"}]}}}}}, {"name": "RGB/inception_i3d/Mixed_5c/Branch_1/Conv3d_0b_3x3/batch_norm/batch_norm/sub", "op": "Const", "attr": {"dtype": {"type": "DT_FLOAT"}, "value": {"tensor": {"dtype": "DT_FLOAT", "tensorShape": {"dim": [{"size": "1"}, {"size": "1"}, {"size": "1"}, {"size": "1"}, {"size": "384"}]}}}}}, {"name": "RGB/inception_i3d/Mixed_3c/Branch_1/Conv3d_0b_3x3/conv_3d/convolution/merged_input", "op": "Const", "attr": {"value": {"tensor": {"dtype": "DT_FLOAT", "tensorShape": {"dim": [{"size": "3"}, {"size": "3"}, {"size": "3"}, {"size": "128"}, {"size": "192"}]}}}, "dtype": {"type": "DT_FLOAT"}}}, {"name": "RGB/inception_i3d/Mixed_3c/Branch_1/Conv3d_0b_3x3/batch_norm/batch_norm/sub", "op": "Const", "attr": {"dtype": {"type": "DT_FLOAT"}, "value": {"tensor": {"dtype": "DT_FLOAT", "tensorShape": {"dim": [{"size": "1"}, {"size": "1"}, {"size": "1"}, {"size": "1"}, {"size": "192"}]}}}}}, {"name": "RGB/inception_i3d/Mixed_3c/Branch_2/Conv3d_0a_1x1/conv_3d/convolution/merged_input", "op": "Const", "attr": {"value": {"tensor": {"dtype": "DT_FLOAT", "tensorShape": {"dim": [{"size": "1"}, {"size": "1"}, {"size": "1"}, {"size": "256"}, {"size": "32"}]}}}, "dtype": {"type": "DT_FLOAT"}}}, {"name": "RGB/inception_i3d/Mixed_3c/Branch_2/Conv3d_0a_1x1/batch_norm/batch_norm/sub", "op": "Const", "attr": {"dtype": {"type": "DT_FLOAT"}, "value": {"tensor": {"dtype": "DT_FLOAT", "tensorShape": {"dim": [{"size": "1"}, {"size": "1"}, {"size": "1"}, {"size": "1"}, {"size": "32"}]}}}}}, {"name": "RGB/inception_i3d/Mixed_3c/Branch_2/Conv3d_0b_3x3/conv_3d/convolution/merged_input", "op": "Const", "attr": {"value": {"tensor": {"dtype": "DT_FLOAT", "tensorShape": {"dim": [{"size": "3"}, {"size": "3"}, {"size": "3"}, {"size": "32"}, {"size": "96"}]}}}, "dtype": {"type": "DT_FLOAT"}}}, {"name": "RGB/inception_i3d/Mixed_3c/Branch_2/Conv3d_0b_3x3/batch_norm/batch_norm/sub", "op": "Const", "attr": {"dtype": {"type": "DT_FLOAT"}, "value": {"tensor": {"dtype": "DT_FLOAT", "tensorShape": {"dim": [{"size": "1"}, {"size": "1"}, {"size": "1"}, {"size": "1"}, {"size": "96"}]}}}}}, {"name": "RGB/inception_i3d/Mixed_4f/Branch_3/Conv3d_0b_1x1/conv_3d/convolution/merged_input", "op": "Const", "attr": {"dtype": {"type": "DT_FLOAT"}, "value": {"tensor": {"dtype": "DT_FLOAT", "tensorShape": {"dim": [{"size": "1"}, {"size": "1"}, {"size": "1"}, {"size": "528"}, {"size": "128"}]}}}}}, {"name": "RGB/inception_i3d/Mixed_4f/Branch_3/Conv3d_0b_1x1/batch_norm/batch_norm/sub", "op": "Const", "attr": {"dtype": {"type": "DT_FLOAT"}, "value": {"tensor": {"dtype": "DT_FLOAT", "tensorShape": {"dim": [{"size": "1"}, {"size": "1"}, {"size": "1"}, {"size": "1"}, {"size": "128"}]}}}}}, {"name": "RGB/inception_i3d/Mixed_3c/Branch_3/Conv3d_0b_1x1/conv_3d/convolution/merged_input", "op": "Const", "attr": {"value": {"tensor": {"dtype": "DT_FLOAT", "tensorShape": {"dim": [{"size": "1"}, {"size": "1"}, {"size": "1"}, {"size": "256"}, {"size": "64"}]}}}, "dtype": {"type": "DT_FLOAT"}}}, {"name": "RGB/inception_i3d/Mixed_3c/Branch_3/Conv3d_0b_1x1/batch_norm/batch_norm/sub", "op": "Const", "attr": {"value": {"tensor": {"dtype": "DT_FLOAT", "tensorShape": {"dim": [{"size": "1"}, {"size": "1"}, {"size": "1"}, {"size": "1"}, {"size": "64"}]}}}, "dtype": {"type": "DT_FLOAT"}}}, {"name": "RGB/inception_i3d/Mixed_4b/Branch_0/Conv3d_0a_1x1/conv_3d/convolution/merged_input", "op": "Const", "attr": {"value": {"tensor": {"dtype": "DT_FLOAT", "tensorShape": {"dim": [{"size": "1"}, {"size": "1"}, {"size": "1"}, {"size": "480"}, {"size": "192"}]}}}, "dtype": {"type": "DT_FLOAT"}}}, {"name": "RGB/inception_i3d/Mixed_4b/Branch_0/Conv3d_0a_1x1/batch_norm/batch_norm/sub", "op": "Const", "attr": {"value": {"tensor": {"dtype": "DT_FLOAT", "tensorShape": {"dim": [{"size": "1"}, {"size": "1"}, {"size": "1"}, {"size": "1"}, {"size": "192"}]}}}, "dtype": {"type": "DT_FLOAT"}}}, {"name": "RGB/inception_i3d/Logits/Conv3d_0c_1x1/conv_3d/w", "op": "Const", "attr": {"value": {"tensor": {"dtype": "DT_FLOAT", "tensorShape": {"dim": [{"size": "1"}, {"size": "1"}, {"size": "1"}, {"size": "1024"}, {"size": "400"}]}}}, "dtype": {"type": "DT_FLOAT"}}}, {"name": "RGB/inception_i3d/Mixed_4b/Branch_1/Conv3d_0a_1x1/conv_3d/convolution/merged_input", "op": "Const", "attr": {"dtype": {"type": "DT_FLOAT"}, "value": {"tensor": {"dtype": "DT_FLOAT", "tensorShape": {"dim": [{"size": "1"}, {"size": "1"}, {"size": "1"}, {"size": "480"}, {"size": "96"}]}}}}}, {"name": "RGB/inception_i3d/Mixed_4b/Branch_1/Conv3d_0a_1x1/batch_norm/batch_norm/sub", "op": "Const", "attr": {"dtype": {"type": "DT_FLOAT"}, "value": {"tensor": {"dtype": "DT_FLOAT", "tensorShape": {"dim": [{"size": "1"}, {"size": "1"}, {"size": "1"}, {"size": "1"}, {"size": "96"}]}}}}}, {"name": "index_to_string/hash_table", "op": "HashTableV2", "attr": {"key_dtype": {"type": "DT_INT64"}, "shared_name": {"s": "aGFzaF90YWJsZV81YjY0YTYxYy1jZWFiLTRmMjktYWJiNi1iZTkwMjZhNTZjNGU="}, "container": {"s": ""}, "value_dtype": {"type": "DT_STRING"}, "use_node_name_sharing": {"b": false}}}, {"name": "RGB/inception_i3d/Mixed_5b/Branch_0/Conv3d_0a_1x1/conv_3d/convolution/merged_input", "op": "Const", "attr": {"dtype": {"type": "DT_FLOAT"}, "value": {"tensor": {"dtype": "DT_FLOAT", "tensorShape": {"dim": [{"size": "1"}, {"size": "1"}, {"size": "1"}, {"size": "832"}, {"size": "256"}]}}}}}, {"name": "RGB/inception_i3d/Mixed_4b/Branch_1/Conv3d_0b_3x3/conv_3d/convolution/merged_input", "op": "Const", "attr": {"value": {"tensor": {"dtype": "DT_FLOAT", "tensorShape": {"dim": [{"size": "3"}, {"size": "3"}, {"size": "3"}, {"size": "96"}, {"size": "208"}]}}}, "dtype": {"type": "DT_FLOAT"}}}, {"name": "RGB/inception_i3d/Mixed_4b/Branch_1/Conv3d_0b_3x3/batch_norm/batch_norm/sub", "op": "Const", "attr": {"value": {"tensor": {"dtype": "DT_FLOAT", "tensorShape": {"dim": [{"size": "1"}, {"size": "1"}, {"size": "1"}, {"size": "1"}, {"size": "208"}]}}}, "dtype": {"type": "DT_FLOAT"}}}, {"name": "RGB/inception_i3d/Mixed_5b/Branch_0/Conv3d_0a_1x1/batch_norm/batch_norm/sub", "op": "Const", "attr": {"dtype": {"type": "DT_FLOAT"}, "value": {"tensor": {"dtype": "DT_FLOAT", "tensorShape": {"dim": [{"size": "1"}, {"size": "1"}, {"size": "1"}, {"size": "1"}, {"size": "256"}]}}}}}, {"name": "RGB/inception_i3d/Mixed_4b/Branch_2/Conv3d_0a_1x1/conv_3d/convolution/merged_input", "op": "Const", "attr": {"value": {"tensor": {"dtype": "DT_FLOAT", "tensorShape": {"dim": [{"size": "1"}, {"size": "1"}, {"size": "1"}, {"size": "480"}, {"size": "16"}]}}}, "dtype": {"type": "DT_FLOAT"}}}, {"name": "RGB/inception_i3d/Mixed_4b/Branch_2/Conv3d_0a_1x1/batch_norm/batch_norm/sub", "op": "Const", "attr": {"value": {"tensor": {"dtype": "DT_FLOAT", "tensorShape": {"dim": [{"size": "1"}, {"size": "1"}, {"size": "1"}, {"size": "1"}, {"size": "16"}]}}}, "dtype": {"type": "DT_FLOAT"}}}, {"name": "RGB/inception_i3d/Mixed_4b/Branch_2/Conv3d_0b_3x3/conv_3d/convolution/merged_input", "op": "Const", "attr": {"value": {"tensor": {"dtype": "DT_FLOAT", "tensorShape": {"dim": [{"size": "3"}, {"size": "3"}, {"size": "3"}, {"size": "16"}, {"size": "48"}]}}}, "dtype": {"type": "DT_FLOAT"}}}, {"name": "RGB/inception_i3d/Mixed_4b/Branch_2/Conv3d_0b_3x3/batch_norm/batch_norm/sub", "op": "Const", "attr": {"dtype": {"type": "DT_FLOAT"}, "value": {"tensor": {"dtype": "DT_FLOAT", "tensorShape": {"dim": [{"size": "1"}, {"size": "1"}, {"size": "1"}, {"size": "1"}, {"size": "48"}]}}}}}, {"name": "RGB/inception_i3d/Mixed_5c/Branch_2/Conv3d_0a_1x1/conv_3d/convolution/merged_input", "op": "Const", "attr": {"dtype": {"type": "DT_FLOAT"}, "value": {"tensor": {"dtype": "DT_FLOAT", "tensorShape": {"dim": [{"size": "1"}, {"size": "1"}, {"size": "1"}, {"size": "832"}, {"size": "48"}]}}}}}, {"name": "RGB/inception_i3d/Mixed_4b/Branch_3/Conv3d_0b_1x1/conv_3d/convolution/merged_input", "op": "Const", "attr": {"dtype": {"type": "DT_FLOAT"}, "value": {"tensor": {"dtype": "DT_FLOAT", "tensorShape": {"dim": [{"size": "1"}, {"size": "1"}, {"size": "1"}, {"size": "480"}, {"size": "64"}]}}}}}, {"name": "RGB/inception_i3d/Mixed_4b/Branch_3/Conv3d_0b_1x1/batch_norm/batch_norm/sub", "op": "Const", "attr": {"value": {"tensor": {"dtype": "DT_FLOAT", "tensorShape": {"dim": [{"size": "1"}, {"size": "1"}, {"size": "1"}, {"size": "1"}, {"size": "64"}]}}}, "dtype": {"type": "DT_FLOAT"}}}, {"name": "RGB/inception_i3d/Mixed_5b/Branch_1/Conv3d_0a_1x1/conv_3d/convolution/merged_input", "op": "Const", "attr": {"value": {"tensor": {"dtype": "DT_FLOAT", "tensorShape": {"dim": [{"size": "1"}, {"size": "1"}, {"size": "1"}, {"size": "832"}, {"size": "160"}]}}}, "dtype": {"type": "DT_FLOAT"}}}, {"name": "RGB/inception_i3d/Mixed_5b/Branch_1/Conv3d_0a_1x1/batch_norm/batch_norm/sub", "op": "Const", "attr": {"value": {"tensor": {"dtype": "DT_FLOAT", "tensorShape": {"dim": [{"size": "1"}, {"size": "1"}, {"size": "1"}, {"size": "1"}, {"size": "160"}]}}}, "dtype": {"type": "DT_FLOAT"}}}, {"name": "RGB/inception_i3d/Mixed_4c/Branch_0/Conv3d_0a_1x1/conv_3d/convolution/merged_input", "op": "Const", "attr": {"value": {"tensor": {"dtype": "DT_FLOAT", "tensorShape": {"dim": [{"size": "1"}, {"size": "1"}, {"size": "1"}, {"size": "512"}, {"size": "160"}]}}}, "dtype": {"type": "DT_FLOAT"}}}, {"name": "RGB/inception_i3d/Mixed_4c/Branch_0/Conv3d_0a_1x1/batch_norm/batch_norm/sub", "op": "Const", "attr": {"value": {"tensor": {"dtype": "DT_FLOAT", "tensorShape": {"dim": [{"size": "1"}, {"size": "1"}, {"size": "1"}, {"size": "1"}, {"size": "160"}]}}}, "dtype": {"type": "DT_FLOAT"}}}, {"name": "RGB/inception_i3d/Mixed_5c/Branch_2/Conv3d_0a_1x1/batch_norm/batch_norm/sub", "op": "Const", "attr": {"dtype": {"type": "DT_FLOAT"}, "value": {"tensor": {"dtype": "DT_FLOAT", "tensorShape": {"dim": [{"size": "1"}, {"size": "1"}, {"size": "1"}, {"size": "1"}, {"size": "48"}]}}}}}, {"name": "RGB/inception_i3d/Mixed_4c/Branch_1/Conv3d_0a_1x1/conv_3d/convolution/merged_input", "op": "Const", "attr": {"value": {"tensor": {"dtype": "DT_FLOAT", "tensorShape": {"dim": [{"size": "1"}, {"size": "1"}, {"size": "1"}, {"size": "512"}, {"size": "112"}]}}}, "dtype": {"type": "DT_FLOAT"}}}, {"name": "RGB/inception_i3d/Mixed_4c/Branch_1/Conv3d_0a_1x1/batch_norm/batch_norm/sub", "op": "Const", "attr": {"dtype": {"type": "DT_FLOAT"}, "value": {"tensor": {"dtype": "DT_FLOAT", "tensorShape": {"dim": [{"size": "1"}, {"size": "1"}, {"size": "1"}, {"size": "1"}, {"size": "112"}]}}}}}, {"name": "RGB/inception_i3d/Mixed_4c/Branch_1/Conv3d_0b_3x3/conv_3d/convolution/merged_input", "op": "Const", "attr": {"dtype": {"type": "DT_FLOAT"}, "value": {"tensor": {"dtype": "DT_FLOAT", "tensorShape": {"dim": [{"size": "3"}, {"size": "3"}, {"size": "3"}, {"size": "112"}, {"size": "224"}]}}}}}, {"name": "RGB/inception_i3d/Mixed_4c/Branch_1/Conv3d_0b_3x3/batch_norm/batch_norm/sub", "op": "Const", "attr": {"value": {"tensor": {"dtype": "DT_FLOAT", "tensorShape": {"dim": [{"size": "1"}, {"size": "1"}, {"size": "1"}, {"size": "1"}, {"size": "224"}]}}}, "dtype": {"type": "DT_FLOAT"}}}, {"name": "RGB/inception_i3d/Mixed_5b/Branch_1/Conv3d_0b_3x3/conv_3d/convolution/merged_input", "op": "Const", "attr": {"value": {"tensor": {"dtype": "DT_FLOAT", "tensorShape": {"dim": [{"size": "3"}, {"size": "3"}, {"size": "3"}, {"size": "160"}, {"size": "320"}]}}}, "dtype": {"type": "DT_FLOAT"}}}, {"name": "RGB/inception_i3d/Mixed_5b/Branch_1/Conv3d_0b_3x3/batch_norm/batch_norm/sub", "op": "Const", "attr": {"value": {"tensor": {"dtype": "DT_FLOAT", "tensorShape": {"dim": [{"size": "1"}, {"size": "1"}, {"size": "1"}, {"size": "1"}, {"size": "320"}]}}}, "dtype": {"type": "DT_FLOAT"}}}, {"name": "RGB/inception_i3d/Mixed_4c/Branch_2/Conv3d_0a_1x1/conv_3d/convolution/merged_input", "op": "Const", "attr": {"value": {"tensor": {"dtype": "DT_FLOAT", "tensorShape": {"dim": [{"size": "1"}, {"size": "1"}, {"size": "1"}, {"size": "512"}, {"size": "24"}]}}}, "dtype": {"type": "DT_FLOAT"}}}, {"name": "RGB/inception_i3d/Mixed_4c/Branch_2/Conv3d_0a_1x1/batch_norm/batch_norm/sub", "op": "Const", "attr": {"value": {"tensor": {"dtype": "DT_FLOAT", "tensorShape": {"dim": [{"size": "1"}, {"size": "1"}, {"size": "1"}, {"size": "1"}, {"size": "24"}]}}}, "dtype": {"type": "DT_FLOAT"}}}, {"name": "RGB/inception_i3d/Mixed_4c/Branch_2/Conv3d_0b_3x3/conv_3d/convolution/merged_input", "op": "Const", "attr": {"dtype": {"type": "DT_FLOAT"}, "value": {"tensor": {"dtype": "DT_FLOAT", "tensorShape": {"dim": [{"size": "3"}, {"size": "3"}, {"size": "3"}, {"size": "24"}, {"size": "64"}]}}}}}, {"name": "RGB/inception_i3d/Mixed_4c/Branch_2/Conv3d_0b_3x3/batch_norm/batch_norm/sub", "op": "Const", "attr": {"dtype": {"type": "DT_FLOAT"}, "value": {"tensor": {"dtype": "DT_FLOAT", "tensorShape": {"dim": [{"size": "1"}, {"size": "1"}, {"size": "1"}, {"size": "1"}, {"size": "64"}]}}}}}, {"name": "RGB/inception_i3d/Logits/Conv3d_0c_1x1/conv_3d/Reshape", "op": "Const", "attr": {"dtype": {"type": "DT_FLOAT"}, "value": {"tensor": {"dtype": "DT_FLOAT", "tensorShape": {"dim": [{"size": "1"}, {"size": "1"}, {"size": "1"}, {"size": "1"}, {"size": "400"}]}}}}}, {"name": "RGB/inception_i3d/Mixed_4c/Branch_3/Conv3d_0b_1x1/conv_3d/convolution/merged_input", "op": "Const", "attr": {"value": {"tensor": {"dtype": "DT_FLOAT", "tensorShape": {"dim": [{"size": "1"}, {"size": "1"}, {"size": "1"}, {"size": "512"}, {"size": "64"}]}}}, "dtype": {"type": "DT_FLOAT"}}}, {"name": "RGB/inception_i3d/Mixed_4c/Branch_3/Conv3d_0b_1x1/batch_norm/batch_norm/sub", "op": "Const", "attr": {"dtype": {"type": "DT_FLOAT"}, "value": {"tensor": {"dtype": "DT_FLOAT", "tensorShape": {"dim": [{"size": "1"}, {"size": "1"}, {"size": "1"}, {"size": "1"}, {"size": "64"}]}}}}}, {"name": "RGB/inception_i3d/Mixed_5b/Branch_2/Conv3d_0a_1x1/conv_3d/convolution/merged_input", "op": "Const", "attr": {"dtype": {"type": "DT_FLOAT"}, "value": {"tensor": {"dtype": "DT_FLOAT", "tensorShape": {"dim": [{"size": "1"}, {"size": "1"}, {"size": "1"}, {"size": "832"}, {"size": "32"}]}}}}}, {"name": "RGB/inception_i3d/Mixed_5b/Branch_2/Conv3d_0a_1x1/batch_norm/batch_norm/sub", "op": "Const", "attr": {"dtype": {"type": "DT_FLOAT"}, "value": {"tensor": {"dtype": "DT_FLOAT", "tensorShape": {"dim": [{"size": "1"}, {"size": "1"}, {"size": "1"}, {"size": "1"}, {"size": "32"}]}}}}}, {"name": "RGB/inception_i3d/Mixed_4d/Branch_0/Conv3d_0a_1x1/conv_3d/convolution/merged_input", "op": "Const", "attr": {"dtype": {"type": "DT_FLOAT"}, "value": {"tensor": {"dtype": "DT_FLOAT", "tensorShape": {"dim": [{"size": "1"}, {"size": "1"}, {"size": "1"}, {"size": "512"}, {"size": "128"}]}}}}}, {"name": "RGB/inception_i3d/Mixed_4d/Branch_0/Conv3d_0a_1x1/batch_norm/batch_norm/sub", "op": "Const", "attr": {"dtype": {"type": "DT_FLOAT"}, "value": {"tensor": {"dtype": "DT_FLOAT", "tensorShape": {"dim": [{"size": "1"}, {"size": "1"}, {"size": "1"}, {"size": "1"}, {"size": "128"}]}}}}}, {"name": "RGB/inception_i3d/Mixed_4d/Branch_1/Conv3d_0a_1x1/conv_3d/convolution/merged_input", "op": "Const", "attr": {"value": {"tensor": {"dtype": "DT_FLOAT", "tensorShape": {"dim": [{"size": "1"}, {"size": "1"}, {"size": "1"}, {"size": "512"}, {"size": "128"}]}}}, "dtype": {"type": "DT_FLOAT"}}}, {"name": "RGB/inception_i3d/Mixed_4d/Branch_1/Conv3d_0a_1x1/batch_norm/batch_norm/sub", "op": "Const", "attr": {"value": {"tensor": {"dtype": "DT_FLOAT", "tensorShape": {"dim": [{"size": "1"}, {"size": "1"}, {"size": "1"}, {"size": "1"}, {"size": "128"}]}}}, "dtype": {"type": "DT_FLOAT"}}}, {"name": "RGB/inception_i3d/Mixed_4d/Branch_1/Conv3d_0b_3x3/conv_3d/convolution/merged_input", "op": "Const", "attr": {"value": {"tensor": {"dtype": "DT_FLOAT", "tensorShape": {"dim": [{"size": "3"}, {"size": "3"}, {"size": "3"}, {"size": "128"}, {"size": "256"}]}}}, "dtype": {"type": "DT_FLOAT"}}}, {"name": "RGB/inception_i3d/Mixed_4d/Branch_1/Conv3d_0b_3x3/batch_norm/batch_norm/sub", "op": "Const", "attr": {"dtype": {"type": "DT_FLOAT"}, "value": {"tensor": {"dtype": "DT_FLOAT", "tensorShape": {"dim": [{"size": "1"}, {"size": "1"}, {"size": "1"}, {"size": "1"}, {"size": "256"}]}}}}}, {"name": "RGB/inception_i3d/Mixed_5b/Branch_2/Conv3d_0a_3x3/conv_3d/convolution/merged_input", "op": "Const", "attr": {"value": {"tensor": {"dtype": "DT_FLOAT", "tensorShape": {"dim": [{"size": "3"}, {"size": "3"}, {"size": "3"}, {"size": "32"}, {"size": "128"}]}}}, "dtype": {"type": "DT_FLOAT"}}}, {"name": "RGB/inception_i3d/Mixed_5b/Branch_2/Conv3d_0a_3x3/batch_norm/batch_norm/sub", "op": "Const", "attr": {"dtype": {"type": "DT_FLOAT"}, "value": {"tensor": {"dtype": "DT_FLOAT", "tensorShape": {"dim": [{"size": "1"}, {"size": "1"}, {"size": "1"}, {"size": "1"}, {"size": "128"}]}}}}}, {"name": "RGB/inception_i3d/Mixed_4d/Branch_2/Conv3d_0a_1x1/conv_3d/convolution/merged_input", "op": "Const", "attr": {"dtype": {"type": "DT_FLOAT"}, "value": {"tensor": {"dtype": "DT_FLOAT", "tensorShape": {"dim": [{"size": "1"}, {"size": "1"}, {"size": "1"}, {"size": "512"}, {"size": "24"}]}}}}}, {"name": "RGB/inception_i3d/Mixed_4d/Branch_2/Conv3d_0a_1x1/batch_norm/batch_norm/sub", "op": "Const", "attr": {"dtype": {"type": "DT_FLOAT"}, "value": {"tensor": {"dtype": "DT_FLOAT", "tensorShape": {"dim": [{"size": "1"}, {"size": "1"}, {"size": "1"}, {"size": "1"}, {"size": "24"}]}}}}}, {"name": "RGB/inception_i3d/Mixed_5c/Branch_2/Conv3d_0b_3x3/conv_3d/convolution/merged_input", "op": "Const", "attr": {"value": {"tensor": {"dtype": "DT_FLOAT", "tensorShape": {"dim": [{"size": "3"}, {"size": "3"}, {"size": "3"}, {"size": "48"}, {"size": "128"}]}}}, "dtype": {"type": "DT_FLOAT"}}}, {"name": "RGB/inception_i3d/Mixed_4d/Branch_2/Conv3d_0b_3x3/conv_3d/convolution/merged_input", "op": "Const", "attr": {"dtype": {"type": "DT_FLOAT"}, "value": {"tensor": {"dtype": "DT_FLOAT", "tensorShape": {"dim": [{"size": "3"}, {"size": "3"}, {"size": "3"}, {"size": "24"}, {"size": "64"}]}}}}}, {"name": "RGB/inception_i3d/Mixed_4d/Branch_2/Conv3d_0b_3x3/batch_norm/batch_norm/sub", "op": "Const", "attr": {"value": {"tensor": {"dtype": "DT_FLOAT", "tensorShape": {"dim": [{"size": "1"}, {"size": "1"}, {"size": "1"}, {"size": "1"}, {"size": "64"}]}}}, "dtype": {"type": "DT_FLOAT"}}}, {"name": "RGB/inception_i3d/Mixed_5c/Branch_2/Conv3d_0b_3x3/batch_norm/batch_norm/sub", "op": "Const", "attr": {"value": {"tensor": {"dtype": "DT_FLOAT", "tensorShape": {"dim": [{"size": "1"}, {"size": "1"}, {"size": "1"}, {"size": "1"}, {"size": "128"}]}}}, "dtype": {"type": "DT_FLOAT"}}}, {"name": "RGB/inception_i3d/Mixed_4d/Branch_3/Conv3d_0b_1x1/conv_3d/convolution/merged_input", "op": "Const", "attr": {"dtype": {"type": "DT_FLOAT"}, "value": {"tensor": {"dtype": "DT_FLOAT", "tensorShape": {"dim": [{"size": "1"}, {"size": "1"}, {"size": "1"}, {"size": "512"}, {"size": "64"}]}}}}}, {"name": "RGB/inception_i3d/Mixed_4d/Branch_3/Conv3d_0b_1x1/batch_norm/batch_norm/sub", "op": "Const", "attr": {"value": {"tensor": {"dtype": "DT_FLOAT", "tensorShape": {"dim": [{"size": "1"}, {"size": "1"}, {"size": "1"}, {"size": "1"}, {"size": "64"}]}}}, "dtype": {"type": "DT_FLOAT"}}}, {"name": "RGB/inception_i3d/Mixed_5b/Branch_3/Conv3d_0b_1x1/conv_3d/convolution/merged_input", "op": "Const", "attr": {"value": {"tensor": {"dtype": "DT_FLOAT", "tensorShape": {"dim": [{"size": "1"}, {"size": "1"}, {"size": "1"}, {"size": "832"}, {"size": "128"}]}}}, "dtype": {"type": "DT_FLOAT"}}}, {"name": "RGB/inception_i3d/Mixed_4e/Branch_0/Conv3d_0a_1x1/conv_3d/convolution/merged_input", "op": "Const", "attr": {"value": {"tensor": {"dtype": "DT_FLOAT", "tensorShape": {"dim": [{"size": "1"}, {"size": "1"}, {"size": "1"}, {"size": "512"}, {"size": "112"}]}}}, "dtype": {"type": "DT_FLOAT"}}}, {"name": "RGB/inception_i3d/Mixed_4e/Branch_0/Conv3d_0a_1x1/batch_norm/batch_norm/sub", "op": "Const", "attr": {"dtype": {"type": "DT_FLOAT"}, "value": {"tensor": {"dtype": "DT_FLOAT", "tensorShape": {"dim": [{"size": "1"}, {"size": "1"}, {"size": "1"}, {"size": "1"}, {"size": "112"}]}}}}}, {"name": "RGB/inception_i3d/Mixed_5b/Branch_3/Conv3d_0b_1x1/batch_norm/batch_norm/sub", "op": "Const", "attr": {"value": {"tensor": {"dtype": "DT_FLOAT", "tensorShape": {"dim": [{"size": "1"}, {"size": "1"}, {"size": "1"}, {"size": "1"}, {"size": "128"}]}}}, "dtype": {"type": "DT_FLOAT"}}}, {"name": "RGB/inception_i3d/Mixed_4e/Branch_1/Conv3d_0a_1x1/conv_3d/convolution/merged_input", "op": "Const", "attr": {"dtype": {"type": "DT_FLOAT"}, "value": {"tensor": {"dtype": "DT_FLOAT", "tensorShape": {"dim": [{"size": "1"}, {"size": "1"}, {"size": "1"}, {"size": "512"}, {"size": "144"}]}}}}}, {"name": "RGB/inception_i3d/Mixed_4e/Branch_1/Conv3d_0a_1x1/batch_norm/batch_norm/sub", "op": "Const", "attr": {"value": {"tensor": {"dtype": "DT_FLOAT", "tensorShape": {"dim": [{"size": "1"}, {"size": "1"}, {"size": "1"}, {"size": "1"}, {"size": "144"}]}}}, "dtype": {"type": "DT_FLOAT"}}}, {"name": "RGB/inception_i3d/Mean/reduction_indices", "op": "Const", "attr": {"dtype": {"type": "DT_INT32"}, "value": {"tensor": {"dtype": "DT_INT32", "tensorShape": {}}}}}, {"name": "RGB/inception_i3d/Mixed_4e/Branch_1/Conv3d_0b_3x3/conv_3d/convolution/merged_input", "op": "Const", "attr": {"dtype": {"type": "DT_FLOAT"}, "value": {"tensor": {"dtype": "DT_FLOAT", "tensorShape": {"dim": [{"size": "3"}, {"size": "3"}, {"size": "3"}, {"size": "144"}, {"size": "288"}]}}}}}, {"name": "RGB/inception_i3d/Mixed_4e/Branch_1/Conv3d_0b_3x3/batch_norm/batch_norm/sub", "op": "Const", "attr": {"value": {"tensor": {"dtype": "DT_FLOAT", "tensorShape": {"dim": [{"size": "1"}, {"size": "1"}, {"size": "1"}, {"size": "1"}, {"size": "288"}]}}}, "dtype": {"type": "DT_FLOAT"}}}, {"name": "TopKV2/k", "op": "Const", "attr": {"value": {"tensor": {"dtype": "DT_INT32", "tensorShape": {}}}, "dtype": {"type": "DT_INT32"}}}, {"name": "RGB/inception_i3d/Mixed_4e/Branch_2/Conv3d_0a_1x1/conv_3d/convolution/merged_input", "op": "Const", "attr": {"value": {"tensor": {"dtype": "DT_FLOAT", "tensorShape": {"dim": [{"size": "1"}, {"size": "1"}, {"size": "1"}, {"size": "512"}, {"size": "32"}]}}}, "dtype": {"type": "DT_FLOAT"}}}, {"name": "RGB/inception_i3d/Mixed_4e/Branch_2/Conv3d_0a_1x1/batch_norm/batch_norm/sub", "op": "Const", "attr": {"value": {"tensor": {"dtype": "DT_FLOAT", "tensorShape": {"dim": [{"size": "1"}, {"size": "1"}, {"size": "1"}, {"size": "1"}, {"size": "32"}]}}}, "dtype": {"type": "DT_FLOAT"}}}, {"name": "RGB/inception_i3d/Mixed_5c/Branch_0/Conv3d_0a_1x1/conv_3d/convolution/merged_input", "op": "Const", "attr": {"dtype": {"type": "DT_FLOAT"}, "value": {"tensor": {"dtype": "DT_FLOAT", "tensorShape": {"dim": [{"size": "1"}, {"size": "1"}, {"size": "1"}, {"size": "832"}, {"size": "384"}]}}}}}, {"name": "RGB/inception_i3d/Mixed_5c/Branch_0/Conv3d_0a_1x1/batch_norm/batch_norm/sub", "op": "Const", "attr": {"dtype": {"type": "DT_FLOAT"}, "value": {"tensor": {"dtype": "DT_FLOAT", "tensorShape": {"dim": [{"size": "1"}, {"size": "1"}, {"size": "1"}, {"size": "1"}, {"size": "384"}]}}}}}, {"name": "RGB/inception_i3d/Mixed_4e/Branch_2/Conv3d_0b_3x3/conv_3d/convolution/merged_input", "op": "Const", "attr": {"dtype": {"type": "DT_FLOAT"}, "value": {"tensor": {"dtype": "DT_FLOAT", "tensorShape": {"dim": [{"size": "3"}, {"size": "3"}, {"size": "3"}, {"size": "32"}, {"size": "64"}]}}}}}, {"name": "RGB/inception_i3d/Mixed_4e/Branch_2/Conv3d_0b_3x3/batch_norm/batch_norm/sub", "op": "Const", "attr": {"value": {"tensor": {"dtype": "DT_FLOAT", "tensorShape": {"dim": [{"size": "1"}, {"size": "1"}, {"size": "1"}, {"size": "1"}, {"size": "64"}]}}}, "dtype": {"type": "DT_FLOAT"}}}, {"name": "RGB/inception_i3d/Mixed_4e/Branch_3/Conv3d_0b_1x1/conv_3d/convolution/merged_input", "op": "Const", "attr": {"value": {"tensor": {"dtype": "DT_FLOAT", "tensorShape": {"dim": [{"size": "1"}, {"size": "1"}, {"size": "1"}, {"size": "512"}, {"size": "64"}]}}}, "dtype": {"type": "DT_FLOAT"}}}, {"name": "RGB/inception_i3d/Mixed_4e/Branch_3/Conv3d_0b_1x1/batch_norm/batch_norm/sub", "op": "Const", "attr": {"dtype": {"type": "DT_FLOAT"}, "value": {"tensor": {"dtype": "DT_FLOAT", "tensorShape": {"dim": [{"size": "1"}, {"size": "1"}, {"size": "1"}, {"size": "1"}, {"size": "64"}]}}}}}, {"name": "index_to_string/Const", "op": "Const", "attr": {"dtype": {"type": "DT_STRING"}, "value": {"tensor": {"dtype": "DT_STRING", "tensorShape": {}}}}}, {"name": "RGB/inception_i3d/Mixed_4f/Branch_0/Conv3d_0a_1x1/conv_3d/convolution/merged_input", "op": "Const", "attr": {"value": {"tensor": {"dtype": "DT_FLOAT", "tensorShape": {"dim": [{"size": "1"}, {"size": "1"}, {"size": "1"}, {"size": "528"}, {"size": "256"}]}}}, "dtype": {"type": "DT_FLOAT"}}}, {"name": "RGB/inception_i3d/Mixed_4f/Branch_0/Conv3d_0a_1x1/batch_norm/batch_norm/sub", "op": "Const", "attr": {"value": {"tensor": {"dtype": "DT_FLOAT", "tensorShape": {"dim": [{"size": "1"}, {"size": "1"}, {"size": "1"}, {"size": "1"}, {"size": "256"}]}}}, "dtype": {"type": "DT_FLOAT"}}}, {"name": "RGB/inception_i3d/Conv3d_1a_7x7/conv_3d/convolution", "op": "Conv3D", "input": ["RGB/Const", "RGB/inception_i3d/Conv3d_1a_7x7/conv_3d/w"], "attr": {"padding": {"s": "U0FNRQ=="}, "dilations": {"list": {"i": ["1", "1", "1", "1", "1"]}}, "T": {"type": "DT_FLOAT"}, "data_format": {"s": "TkRIV0M="}, "strides": {"list": {"i": ["1", "2", "2", "2", "1"]}}}}, {"name": "RGB/inception_i3d/Conv3d_1a_7x7/batch_norm/batch_norm/mul", "op": "Mul", "input": ["RGB/inception_i3d/Conv3d_1a_7x7/batch_norm/batch_norm/Rsqrt", "RGB/inception_i3d/Conv3d_1a_7x7/conv_3d/convolution"], "attr": {"T": {"type": "DT_FLOAT"}}}, {"name": "RGB/inception_i3d/Conv3d_1a_7x7/batch_norm/batch_norm/add_1", "op": "AddV2", "input": ["RGB/inception_i3d/Conv3d_1a_7x7/batch_norm/batch_norm/mul", "RGB/inception_i3d/Conv3d_1a_7x7/batch_norm/batch_norm/sub"], "attr": {"T": {"type": "DT_FLOAT"}}}, {"name": "RGB/inception_i3d/MaxPool3d_2a_3x3", "op": "MaxPool3D", "input": ["RGB/inception_i3d/Conv3d_1a_7x7/batch_norm/batch_norm/add_1"], "attr": {"padding": {"s": "U0FNRQ=="}, "data_format": {"s": "TkRIV0M="}, "T": {"type": "DT_FLOAT"}, "strides": {"list": {"i": ["1", "1", "2", "2", "1"]}}, "ksize": {"list": {"i": ["1", "1", "3", "3", "1"]}}}}, {"name": "RGB/inception_i3d/Conv3d_1a_7x7/Relu", "op": "Relu", "input": ["RGB/inception_i3d/MaxPool3d_2a_3x3"], "attr": {"T": {"type": "DT_FLOAT"}}}, {"name": "RGB/inception_i3d/Conv3d_2b_1x1/batch_norm/batch_norm/mul", "op": "Conv3D", "input": ["RGB/inception_i3d/Conv3d_1a_7x7/Relu", "RGB/inception_i3d/Conv3d_2b_1x1/conv_3d/convolution/merged_input"], "attr": {"T": {"type": "DT_FLOAT"}, "dilations": {"list": {"i": ["1", "1", "1", "1", "1"]}}, "data_format": {"s": "TkRIV0M="}, "padding": {"s": "U0FNRQ=="}, "strides": {"list": {"i": ["1", "1", "1", "1", "1"]}}}}, {"name": "RGB/inception_i3d/Conv3d_2b_1x1/batch_norm/batch_norm/add_1", "op": "AddV2", "input": ["RGB/inception_i3d/Conv3d_2b_1x1/batch_norm/batch_norm/mul", "RGB/inception_i3d/Conv3d_2b_1x1/batch_norm/batch_norm/sub"], "attr": {"T": {"type": "DT_FLOAT"}}}, {"name": "RGB/inception_i3d/Conv3d_2b_1x1/Relu", "op": "Relu", "input": ["RGB/inception_i3d/Conv3d_2b_1x1/batch_norm/batch_norm/add_1"], "attr": {"T": {"type": "DT_FLOAT"}}}, {"name": "RGB/inception_i3d/Conv3d_2c_3x3/batch_norm/batch_norm/mul", "op": "Conv3D", "input": ["RGB/inception_i3d/Conv3d_2b_1x1/Relu", "RGB/inception_i3d/Conv3d_2c_3x3/conv_3d/convolution/merged_input"], "attr": {"strides": {"list": {"i": ["1", "1", "1", "1", "1"]}}, "padding": {"s": "U0FNRQ=="}, "data_format": {"s": "TkRIV0M="}, "T": {"type": "DT_FLOAT"}, "dilations": {"list": {"i": ["1", "1", "1", "1", "1"]}}}}, {"name": "RGB/inception_i3d/Conv3d_2c_3x3/batch_norm/batch_norm/add_1", "op": "AddV2", "input": ["RGB/inception_i3d/Conv3d_2c_3x3/batch_norm/batch_norm/mul", "RGB/inception_i3d/Conv3d_2c_3x3/batch_norm/batch_norm/sub"], "attr": {"T": {"type": "DT_FLOAT"}}}, {"name": "RGB/inception_i3d/MaxPool3d_3a_3x3", "op": "MaxPool3D", "input": ["RGB/inception_i3d/Conv3d_2c_3x3/batch_norm/batch_norm/add_1"], "attr": {"strides": {"list": {"i": ["1", "1", "2", "2", "1"]}}, "T": {"type": "DT_FLOAT"}, "data_format": {"s": "TkRIV0M="}, "ksize": {"list": {"i": ["1", "1", "3", "3", "1"]}}, "padding": {"s": "U0FNRQ=="}}}, {"name": "RGB/inception_i3d/Conv3d_2c_3x3/Relu", "op": "Relu", "input": ["RGB/inception_i3d/MaxPool3d_3a_3x3"], "attr": {"T": {"type": "DT_FLOAT"}}}, {"name": "RGB/inception_i3d/Mixed_3b/Branch_3/MaxPool3d_0a_3x3", "op": "MaxPool3D", "input": ["RGB/inception_i3d/Conv3d_2c_3x3/Relu"], "attr": {"strides": {"list": {"i": ["1", "1", "1", "1", "1"]}}, "data_format": {"s": "TkRIV0M="}, "T": {"type": "DT_FLOAT"}, "ksize": {"list": {"i": ["1", "3", "3", "3", "1"]}}, "padding": {"s": "U0FNRQ=="}}}, {"name": "RGB/inception_i3d/Mixed_3b/Branch_0/Conv3d_0a_1x1/batch_norm/batch_norm/mul", "op": "Conv3D", "input": ["RGB/inception_i3d/Conv3d_2c_3x3/Relu", "RGB/inception_i3d/Mixed_3b/Branch_0/Conv3d_0a_1x1/conv_3d/convolution/merged_input"], "attr": {"padding": {"s": "U0FNRQ=="}, "T": {"type": "DT_FLOAT"}, "data_format": {"s": "TkRIV0M="}, "strides": {"list": {"i": ["1", "1", "1", "1", "1"]}}, "dilations": {"list": {"i": ["1", "1", "1", "1", "1"]}}}}, {"name": "RGB/inception_i3d/Mixed_3b/Branch_1/Conv3d_0a_1x1/batch_norm/batch_norm/mul", "op": "Conv3D", "input": ["RGB/inception_i3d/Conv3d_2c_3x3/Relu", "RGB/inception_i3d/Mixed_3b/Branch_1/Conv3d_0a_1x1/conv_3d/convolution/merged_input"], "attr": {"T": {"type": "DT_FLOAT"}, "padding": {"s": "U0FNRQ=="}, "data_format": {"s": "TkRIV0M="}, "strides": {"list": {"i": ["1", "1", "1", "1", "1"]}}, "dilations": {"list": {"i": ["1", "1", "1", "1", "1"]}}}}, {"name": "RGB/inception_i3d/Mixed_3b/Branch_2/Conv3d_0a_1x1/batch_norm/batch_norm/mul", "op": "Conv3D", "input": ["RGB/inception_i3d/Conv3d_2c_3x3/Relu", "RGB/inception_i3d/Mixed_3b/Branch_2/Conv3d_0a_1x1/conv_3d/convolution/merged_input"], "attr": {"T": {"type": "DT_FLOAT"}, "padding": {"s": "U0FNRQ=="}, "data_format": {"s": "TkRIV0M="}, "dilations": {"list": {"i": ["1", "1", "1", "1", "1"]}}, "strides": {"list": {"i": ["1", "1", "1", "1", "1"]}}}}, {"name": "RGB/inception_i3d/Mixed_3b/Branch_3/Conv3d_0b_1x1/batch_norm/batch_norm/mul", "op": "Conv3D", "input": ["RGB/inception_i3d/Mixed_3b/Branch_3/MaxPool3d_0a_3x3", "RGB/inception_i3d/Mixed_3b/Branch_3/Conv3d_0b_1x1/conv_3d/convolution/merged_input"], "attr": {"dilations": {"list": {"i": ["1", "1", "1", "1", "1"]}}, "padding": {"s": "U0FNRQ=="}, "T": {"type": "DT_FLOAT"}, "strides": {"list": {"i": ["1", "1", "1", "1", "1"]}}, "data_format": {"s": "TkRIV0M="}}}, {"name": "RGB/inception_i3d/Mixed_3b/Branch_0/Conv3d_0a_1x1/batch_norm/batch_norm/add_1", "op": "AddV2", "input": ["RGB/inception_i3d/Mixed_3b/Branch_0/Conv3d_0a_1x1/batch_norm/batch_norm/mul", "RGB/inception_i3d/Mixed_3b/Branch_0/Conv3d_0a_1x1/batch_norm/batch_norm/sub"], "attr": {"T": {"type": "DT_FLOAT"}}}, {"name": "RGB/inception_i3d/Mixed_3b/Branch_1/Conv3d_0a_1x1/batch_norm/batch_norm/add_1", "op": "AddV2", "input": ["RGB/inception_i3d/Mixed_3b/Branch_1/Conv3d_0a_1x1/batch_norm/batch_norm/mul", "RGB/inception_i3d/Mixed_3b/Branch_1/Conv3d_0a_1x1/batch_norm/batch_norm/sub"], "attr": {"T": {"type": "DT_FLOAT"}}}, {"name": "RGB/inception_i3d/Mixed_3b/Branch_2/Conv3d_0a_1x1/batch_norm/batch_norm/add_1", "op": "AddV2", "input": ["RGB/inception_i3d/Mixed_3b/Branch_2/Conv3d_0a_1x1/batch_norm/batch_norm/mul", "RGB/inception_i3d/Mixed_3b/Branch_2/Conv3d_0a_1x1/batch_norm/batch_norm/sub"], "attr": {"T": {"type": "DT_FLOAT"}}}, {"name": "RGB/inception_i3d/Mixed_3b/Branch_3/Conv3d_0b_1x1/batch_norm/batch_norm/add_1", "op": "AddV2", "input": ["RGB/inception_i3d/Mixed_3b/Branch_3/Conv3d_0b_1x1/batch_norm/batch_norm/mul", "RGB/inception_i3d/Mixed_3b/Branch_3/Conv3d_0b_1x1/batch_norm/batch_norm/sub"], "attr": {"T": {"type": "DT_FLOAT"}}}, {"name": "RGB/inception_i3d/Mixed_3b/Branch_1/Conv3d_0a_1x1/Relu", "op": "Relu", "input": ["RGB/inception_i3d/Mixed_3b/Branch_1/Conv3d_0a_1x1/batch_norm/batch_norm/add_1"], "attr": {"T": {"type": "DT_FLOAT"}}}, {"name": "RGB/inception_i3d/Mixed_3b/Branch_2/Conv3d_0a_1x1/Relu", "op": "Relu", "input": ["RGB/inception_i3d/Mixed_3b/Branch_2/Conv3d_0a_1x1/batch_norm/batch_norm/add_1"], "attr": {"T": {"type": "DT_FLOAT"}}}, {"name": "RGB/inception_i3d/Mixed_3b/Branch_1/Conv3d_0b_3x3/batch_norm/batch_norm/mul", "op": "Conv3D", "input": ["RGB/inception_i3d/Mixed_3b/Branch_1/Conv3d_0a_1x1/Relu", "RGB/inception_i3d/Mixed_3b/Branch_1/Conv3d_0b_3x3/conv_3d/convolution/merged_input"], "attr": {"data_format": {"s": "TkRIV0M="}, "strides": {"list": {"i": ["1", "1", "1", "1", "1"]}}, "dilations": {"list": {"i": ["1", "1", "1", "1", "1"]}}, "T": {"type": "DT_FLOAT"}, "padding": {"s": "U0FNRQ=="}}}, {"name": "RGB/inception_i3d/Mixed_3b/Branch_2/Conv3d_0b_3x3/batch_norm/batch_norm/mul", "op": "Conv3D", "input": ["RGB/inception_i3d/Mixed_3b/Branch_2/Conv3d_0a_1x1/Relu", "RGB/inception_i3d/Mixed_3b/Branch_2/Conv3d_0b_3x3/conv_3d/convolution/merged_input"], "attr": {"strides": {"list": {"i": ["1", "1", "1", "1", "1"]}}, "dilations": {"list": {"i": ["1", "1", "1", "1", "1"]}}, "T": {"type": "DT_FLOAT"}, "padding": {"s": "U0FNRQ=="}, "data_format": {"s": "TkRIV0M="}}}, {"name": "RGB/inception_i3d/Mixed_3b/Branch_1/Conv3d_0b_3x3/batch_norm/batch_norm/add_1", "op": "AddV2", "input": ["RGB/inception_i3d/Mixed_3b/Branch_1/Conv3d_0b_3x3/batch_norm/batch_norm/mul", "RGB/inception_i3d/Mixed_3b/Branch_1/Conv3d_0b_3x3/batch_norm/batch_norm/sub"], "attr": {"T": {"type": "DT_FLOAT"}}}, {"name": "RGB/inception_i3d/Mixed_3b/Branch_2/Conv3d_0b_3x3/batch_norm/batch_norm/add_1", "op": "AddV2", "input": ["RGB/inception_i3d/Mixed_3b/Branch_2/Conv3d_0b_3x3/batch_norm/batch_norm/mul", "RGB/inception_i3d/Mixed_3b/Branch_2/Conv3d_0b_3x3/batch_norm/batch_norm/sub"], "attr": {"T": {"type": "DT_FLOAT"}}}, {"name": "RGB/inception_i3d/Mixed_3b/concat", "op": "ConcatV2", "input": ["RGB/inception_i3d/Mixed_3b/Branch_0/Conv3d_0a_1x1/batch_norm/batch_norm/add_1", "RGB/inception_i3d/Mixed_3b/Branch_1/Conv3d_0b_3x3/batch_norm/batch_norm/add_1", "RGB/inception_i3d/Mixed_3b/Branch_2/Conv3d_0b_3x3/batch_norm/batch_norm/add_1", "RGB/inception_i3d/Mixed_3b/Branch_3/Conv3d_0b_1x1/batch_norm/batch_norm/add_1", "RGB/inception_i3d/Mixed_3b/concat/axis"], "attr": {"N": {"i": "4"}, "T": {"type": "DT_FLOAT"}, "Tidx": {"type": "DT_INT32"}}}, {"name": "RGB/inception_i3d/Mixed_3b/Branch_0/Conv3d_0a_1x1/Relu", "op": "Relu", "input": ["RGB/inception_i3d/Mixed_3b/concat"], "attr": {"T": {"type": "DT_FLOAT"}}}, {"name": "RGB/inception_i3d/Mixed_3c/Branch_3/MaxPool3d_0a_3x3", "op": "MaxPool3D", "input": ["RGB/inception_i3d/Mixed_3b/Branch_0/Conv3d_0a_1x1/Relu"], "attr": {"T": {"type": "DT_FLOAT"}, "padding": {"s": "U0FNRQ=="}, "data_format": {"s": "TkRIV0M="}, "ksize": {"list": {"i": ["1", "3", "3", "3", "1"]}}, "strides": {"list": {"i": ["1", "1", "1", "1", "1"]}}}}, {"name": "RGB/inception_i3d/Mixed_3c/Branch_0/Conv3d_0a_1x1/batch_norm/batch_norm/mul", "op": "Conv3D", "input": ["RGB/inception_i3d/Mixed_3b/Branch_0/Conv3d_0a_1x1/Relu", "RGB/inception_i3d/Mixed_3c/Branch_0/Conv3d_0a_1x1/conv_3d/convolution/merged_input"], "attr": {"strides": {"list": {"i": ["1", "1", "1", "1", "1"]}}, "padding": {"s": "U0FNRQ=="}, "T": {"type": "DT_FLOAT"}, "data_format": {"s": "TkRIV0M="}, "dilations": {"list": {"i": ["1", "1", "1", "1", "1"]}}}}, {"name": "RGB/inception_i3d/Mixed_3c/Branch_1/Conv3d_0a_1x1/batch_norm/batch_norm/mul", "op": "Conv3D", "input": ["RGB/inception_i3d/Mixed_3b/Branch_0/Conv3d_0a_1x1/Relu", "RGB/inception_i3d/Mixed_3c/Branch_1/Conv3d_0a_1x1/conv_3d/convolution/merged_input"], "attr": {"data_format": {"s": "TkRIV0M="}, "padding": {"s": "U0FNRQ=="}, "dilations": {"list": {"i": ["1", "1", "1", "1", "1"]}}, "T": {"type": "DT_FLOAT"}, "strides": {"list": {"i": ["1", "1", "1", "1", "1"]}}}}, {"name": "RGB/inception_i3d/Mixed_3c/Branch_2/Conv3d_0a_1x1/batch_norm/batch_norm/mul", "op": "Conv3D", "input": ["RGB/inception_i3d/Mixed_3b/Branch_0/Conv3d_0a_1x1/Relu", "RGB/inception_i3d/Mixed_3c/Branch_2/Conv3d_0a_1x1/conv_3d/convolution/merged_input"], "attr": {"dilations": {"list": {"i": ["1", "1", "1", "1", "1"]}}, "padding": {"s": "U0FNRQ=="}, "data_format": {"s": "TkRIV0M="}, "strides": {"list": {"i": ["1", "1", "1", "1", "1"]}}, "T": {"type": "DT_FLOAT"}}}, {"name": "RGB/inception_i3d/Mixed_3c/Branch_3/Conv3d_0b_1x1/batch_norm/batch_norm/mul", "op": "Conv3D", "input": ["RGB/inception_i3d/Mixed_3c/Branch_3/MaxPool3d_0a_3x3", "RGB/inception_i3d/Mixed_3c/Branch_3/Conv3d_0b_1x1/conv_3d/convolution/merged_input"], "attr": {"data_format": {"s": "TkRIV0M="}, "padding": {"s": "U0FNRQ=="}, "dilations": {"list": {"i": ["1", "1", "1", "1", "1"]}}, "T": {"type": "DT_FLOAT"}, "strides": {"list": {"i": ["1", "1", "1", "1", "1"]}}}}, {"name": "RGB/inception_i3d/Mixed_3c/Branch_0/Conv3d_0a_1x1/batch_norm/batch_norm/add_1", "op": "AddV2", "input": ["RGB/inception_i3d/Mixed_3c/Branch_0/Conv3d_0a_1x1/batch_norm/batch_norm/mul", "RGB/inception_i3d/Mixed_3c/Branch_0/Conv3d_0a_1x1/batch_norm/batch_norm/sub"], "attr": {"T": {"type": "DT_FLOAT"}}}, {"name": "RGB/inception_i3d/Mixed_3c/Branch_1/Conv3d_0a_1x1/batch_norm/batch_norm/add_1", "op": "AddV2", "input": ["RGB/inception_i3d/Mixed_3c/Branch_1/Conv3d_0a_1x1/batch_norm/batch_norm/mul", "RGB/inception_i3d/Mixed_3c/Branch_1/Conv3d_0a_1x1/batch_norm/batch_norm/sub"], "attr": {"T": {"type": "DT_FLOAT"}}}, {"name": "RGB/inception_i3d/Mixed_3c/Branch_2/Conv3d_0a_1x1/batch_norm/batch_norm/add_1", "op": "AddV2", "input": ["RGB/inception_i3d/Mixed_3c/Branch_2/Conv3d_0a_1x1/batch_norm/batch_norm/mul", "RGB/inception_i3d/Mixed_3c/Branch_2/Conv3d_0a_1x1/batch_norm/batch_norm/sub"], "attr": {"T": {"type": "DT_FLOAT"}}}, {"name": "RGB/inception_i3d/Mixed_3c/Branch_3/Conv3d_0b_1x1/batch_norm/batch_norm/add_1", "op": "AddV2", "input": ["RGB/inception_i3d/Mixed_3c/Branch_3/Conv3d_0b_1x1/batch_norm/batch_norm/mul", "RGB/inception_i3d/Mixed_3c/Branch_3/Conv3d_0b_1x1/batch_norm/batch_norm/sub"], "attr": {"T": {"type": "DT_FLOAT"}}}, {"name": "RGB/inception_i3d/Mixed_3c/Branch_1/Conv3d_0a_1x1/Relu", "op": "Relu", "input": ["RGB/inception_i3d/Mixed_3c/Branch_1/Conv3d_0a_1x1/batch_norm/batch_norm/add_1"], "attr": {"T": {"type": "DT_FLOAT"}}}, {"name": "RGB/inception_i3d/Mixed_3c/Branch_2/Conv3d_0a_1x1/Relu", "op": "Relu", "input": ["RGB/inception_i3d/Mixed_3c/Branch_2/Conv3d_0a_1x1/batch_norm/batch_norm/add_1"], "attr": {"T": {"type": "DT_FLOAT"}}}, {"name": "RGB/inception_i3d/Mixed_3c/Branch_1/Conv3d_0b_3x3/batch_norm/batch_norm/mul", "op": "Conv3D", "input": ["RGB/inception_i3d/Mixed_3c/Branch_1/Conv3d_0a_1x1/Relu", "RGB/inception_i3d/Mixed_3c/Branch_1/Conv3d_0b_3x3/conv_3d/convolution/merged_input"], "attr": {"data_format": {"s": "TkRIV0M="}, "strides": {"list": {"i": ["1", "1", "1", "1", "1"]}}, "T": {"type": "DT_FLOAT"}, "dilations": {"list": {"i": ["1", "1", "1", "1", "1"]}}, "padding": {"s": "U0FNRQ=="}}}, {"name": "RGB/inception_i3d/Mixed_3c/Branch_2/Conv3d_0b_3x3/batch_norm/batch_norm/mul", "op": "Conv3D", "input": ["RGB/inception_i3d/Mixed_3c/Branch_2/Conv3d_0a_1x1/Relu", "RGB/inception_i3d/Mixed_3c/Branch_2/Conv3d_0b_3x3/conv_3d/convolution/merged_input"], "attr": {"data_format": {"s": "TkRIV0M="}, "padding": {"s": "U0FNRQ=="}, "dilations": {"list": {"i": ["1", "1", "1", "1", "1"]}}, "T": {"type": "DT_FLOAT"}, "strides": {"list": {"i": ["1", "1", "1", "1", "1"]}}}}, {"name": "RGB/inception_i3d/Mixed_3c/Branch_1/Conv3d_0b_3x3/batch_norm/batch_norm/add_1", "op": "AddV2", "input": ["RGB/inception_i3d/Mixed_3c/Branch_1/Conv3d_0b_3x3/batch_norm/batch_norm/mul", "RGB/inception_i3d/Mixed_3c/Branch_1/Conv3d_0b_3x3/batch_norm/batch_norm/sub"], "attr": {"T": {"type": "DT_FLOAT"}}}, {"name": "RGB/inception_i3d/Mixed_3c/Branch_2/Conv3d_0b_3x3/batch_norm/batch_norm/add_1", "op": "AddV2", "input": ["RGB/inception_i3d/Mixed_3c/Branch_2/Conv3d_0b_3x3/batch_norm/batch_norm/mul", "RGB/inception_i3d/Mixed_3c/Branch_2/Conv3d_0b_3x3/batch_norm/batch_norm/sub"], "attr": {"T": {"type": "DT_FLOAT"}}}, {"name": "RGB/inception_i3d/Mixed_3c/concat", "op": "ConcatV2", "input": ["RGB/inception_i3d/Mixed_3c/Branch_0/Conv3d_0a_1x1/batch_norm/batch_norm/add_1", "RGB/inception_i3d/Mixed_3c/Branch_1/Conv3d_0b_3x3/batch_norm/batch_norm/add_1", "RGB/inception_i3d/Mixed_3c/Branch_2/Conv3d_0b_3x3/batch_norm/batch_norm/add_1", "RGB/inception_i3d/Mixed_3c/Branch_3/Conv3d_0b_1x1/batch_norm/batch_norm/add_1", "RGB/inception_i3d/Mixed_3b/concat/axis"], "attr": {"N": {"i": "4"}, "Tidx": {"type": "DT_INT32"}, "T": {"type": "DT_FLOAT"}}}, {"name": "RGB/inception_i3d/MaxPool3d_4a_3x3", "op": "MaxPool3D", "input": ["RGB/inception_i3d/Mixed_3c/concat"], "attr": {"T": {"type": "DT_FLOAT"}, "data_format": {"s": "TkRIV0M="}, "strides": {"list": {"i": ["1", "2", "2", "2", "1"]}}, "ksize": {"list": {"i": ["1", "3", "3", "3", "1"]}}, "padding": {"s": "U0FNRQ=="}}}, {"name": "RGB/inception_i3d/Mixed_3c/Branch_0/Conv3d_0a_1x1/Relu", "op": "Relu", "input": ["RGB/inception_i3d/MaxPool3d_4a_3x3"], "attr": {"T": {"type": "DT_FLOAT"}}}, {"name": "RGB/inception_i3d/Mixed_4b/Branch_3/MaxPool3d_0a_3x3", "op": "MaxPool3D", "input": ["RGB/inception_i3d/Mixed_3c/Branch_0/Conv3d_0a_1x1/Relu"], "attr": {"T": {"type": "DT_FLOAT"}, "data_format": {"s": "TkRIV0M="}, "ksize": {"list": {"i": ["1", "3", "3", "3", "1"]}}, "strides": {"list": {"i": ["1", "1", "1", "1", "1"]}}, "padding": {"s": "U0FNRQ=="}}}, {"name": "RGB/inception_i3d/Mixed_4b/Branch_0/Conv3d_0a_1x1/batch_norm/batch_norm/mul", "op": "Conv3D", "input": ["RGB/inception_i3d/Mixed_3c/Branch_0/Conv3d_0a_1x1/Relu", "RGB/inception_i3d/Mixed_4b/Branch_0/Conv3d_0a_1x1/conv_3d/convolution/merged_input"], "attr": {"data_format": {"s": "TkRIV0M="}, "dilations": {"list": {"i": ["1", "1", "1", "1", "1"]}}, "T": {"type": "DT_FLOAT"}, "strides": {"list": {"i": ["1", "1", "1", "1", "1"]}}, "padding": {"s": "U0FNRQ=="}}}, {"name": "RGB/inception_i3d/Mixed_4b/Branch_1/Conv3d_0a_1x1/batch_norm/batch_norm/mul", "op": "Conv3D", "input": ["RGB/inception_i3d/Mixed_3c/Branch_0/Conv3d_0a_1x1/Relu", "RGB/inception_i3d/Mixed_4b/Branch_1/Conv3d_0a_1x1/conv_3d/convolution/merged_input"], "attr": {"padding": {"s": "U0FNRQ=="}, "strides": {"list": {"i": ["1", "1", "1", "1", "1"]}}, "data_format": {"s": "TkRIV0M="}, "T": {"type": "DT_FLOAT"}, "dilations": {"list": {"i": ["1", "1", "1", "1", "1"]}}}}, {"name": "RGB/inception_i3d/Mixed_4b/Branch_2/Conv3d_0a_1x1/batch_norm/batch_norm/mul", "op": "Conv3D", "input": ["RGB/inception_i3d/Mixed_3c/Branch_0/Conv3d_0a_1x1/Relu", "RGB/inception_i3d/Mixed_4b/Branch_2/Conv3d_0a_1x1/conv_3d/convolution/merged_input"], "attr": {"strides": {"list": {"i": ["1", "1", "1", "1", "1"]}}, "T": {"type": "DT_FLOAT"}, "data_format": {"s": "TkRIV0M="}, "padding": {"s": "U0FNRQ=="}, "dilations": {"list": {"i": ["1", "1", "1", "1", "1"]}}}}, {"name": "RGB/inception_i3d/Mixed_4b/Branch_3/Conv3d_0b_1x1/batch_norm/batch_norm/mul", "op": "Conv3D", "input": ["RGB/inception_i3d/Mixed_4b/Branch_3/MaxPool3d_0a_3x3", "RGB/inception_i3d/Mixed_4b/Branch_3/Conv3d_0b_1x1/conv_3d/convolution/merged_input"], "attr": {"dilations": {"list": {"i": ["1", "1", "1", "1", "1"]}}, "data_format": {"s": "TkRIV0M="}, "T": {"type": "DT_FLOAT"}, "strides": {"list": {"i": ["1", "1", "1", "1", "1"]}}, "padding": {"s": "U0FNRQ=="}}}, {"name": "RGB/inception_i3d/Mixed_4b/Branch_0/Conv3d_0a_1x1/batch_norm/batch_norm/add_1", "op": "AddV2", "input": ["RGB/inception_i3d/Mixed_4b/Branch_0/Conv3d_0a_1x1/batch_norm/batch_norm/mul", "RGB/inception_i3d/Mixed_4b/Branch_0/Conv3d_0a_1x1/batch_norm/batch_norm/sub"], "attr": {"T": {"type": "DT_FLOAT"}}}, {"name": "RGB/inception_i3d/Mixed_4b/Branch_1/Conv3d_0a_1x1/batch_norm/batch_norm/add_1", "op": "AddV2", "input": ["RGB/inception_i3d/Mixed_4b/Branch_1/Conv3d_0a_1x1/batch_norm/batch_norm/mul", "RGB/inception_i3d/Mixed_4b/Branch_1/Conv3d_0a_1x1/batch_norm/batch_norm/sub"], "attr": {"T": {"type": "DT_FLOAT"}}}, {"name": "RGB/inception_i3d/Mixed_4b/Branch_2/Conv3d_0a_1x1/batch_norm/batch_norm/add_1", "op": "AddV2", "input": ["RGB/inception_i3d/Mixed_4b/Branch_2/Conv3d_0a_1x1/batch_norm/batch_norm/mul", "RGB/inception_i3d/Mixed_4b/Branch_2/Conv3d_0a_1x1/batch_norm/batch_norm/sub"], "attr": {"T": {"type": "DT_FLOAT"}}}, {"name": "RGB/inception_i3d/Mixed_4b/Branch_3/Conv3d_0b_1x1/batch_norm/batch_norm/add_1", "op": "AddV2", "input": ["RGB/inception_i3d/Mixed_4b/Branch_3/Conv3d_0b_1x1/batch_norm/batch_norm/mul", "RGB/inception_i3d/Mixed_4b/Branch_3/Conv3d_0b_1x1/batch_norm/batch_norm/sub"], "attr": {"T": {"type": "DT_FLOAT"}}}, {"name": "RGB/inception_i3d/Mixed_4b/Branch_1/Conv3d_0a_1x1/Relu", "op": "Relu", "input": ["RGB/inception_i3d/Mixed_4b/Branch_1/Conv3d_0a_1x1/batch_norm/batch_norm/add_1"], "attr": {"T": {"type": "DT_FLOAT"}}}, {"name": "RGB/inception_i3d/Mixed_4b/Branch_2/Conv3d_0a_1x1/Relu", "op": "Relu", "input": ["RGB/inception_i3d/Mixed_4b/Branch_2/Conv3d_0a_1x1/batch_norm/batch_norm/add_1"], "attr": {"T": {"type": "DT_FLOAT"}}}, {"name": "RGB/inception_i3d/Mixed_4b/Branch_1/Conv3d_0b_3x3/batch_norm/batch_norm/mul", "op": "Conv3D", "input": ["RGB/inception_i3d/Mixed_4b/Branch_1/Conv3d_0a_1x1/Relu", "RGB/inception_i3d/Mixed_4b/Branch_1/Conv3d_0b_3x3/conv_3d/convolution/merged_input"], "attr": {"strides": {"list": {"i": ["1", "1", "1", "1", "1"]}}, "padding": {"s": "U0FNRQ=="}, "T": {"type": "DT_FLOAT"}, "data_format": {"s": "TkRIV0M="}, "dilations": {"list": {"i": ["1", "1", "1", "1", "1"]}}}}, {"name": "RGB/inception_i3d/Mixed_4b/Branch_2/Conv3d_0b_3x3/batch_norm/batch_norm/mul", "op": "Conv3D", "input": ["RGB/inception_i3d/Mixed_4b/Branch_2/Conv3d_0a_1x1/Relu", "RGB/inception_i3d/Mixed_4b/Branch_2/Conv3d_0b_3x3/conv_3d/convolution/merged_input"], "attr": {"data_format": {"s": "TkRIV0M="}, "dilations": {"list": {"i": ["1", "1", "1", "1", "1"]}}, "T": {"type": "DT_FLOAT"}, "strides": {"list": {"i": ["1", "1", "1", "1", "1"]}}, "padding": {"s": "U0FNRQ=="}}}, {"name": "RGB/inception_i3d/Mixed_4b/Branch_1/Conv3d_0b_3x3/batch_norm/batch_norm/add_1", "op": "AddV2", "input": ["RGB/inception_i3d/Mixed_4b/Branch_1/Conv3d_0b_3x3/batch_norm/batch_norm/mul", "RGB/inception_i3d/Mixed_4b/Branch_1/Conv3d_0b_3x3/batch_norm/batch_norm/sub"], "attr": {"T": {"type": "DT_FLOAT"}}}, {"name": "RGB/inception_i3d/Mixed_4b/Branch_2/Conv3d_0b_3x3/batch_norm/batch_norm/add_1", "op": "AddV2", "input": ["RGB/inception_i3d/Mixed_4b/Branch_2/Conv3d_0b_3x3/batch_norm/batch_norm/mul", "RGB/inception_i3d/Mixed_4b/Branch_2/Conv3d_0b_3x3/batch_norm/batch_norm/sub"], "attr": {"T": {"type": "DT_FLOAT"}}}, {"name": "RGB/inception_i3d/Mixed_4b/concat", "op": "ConcatV2", "input": ["RGB/inception_i3d/Mixed_4b/Branch_0/Conv3d_0a_1x1/batch_norm/batch_norm/add_1", "RGB/inception_i3d/Mixed_4b/Branch_1/Conv3d_0b_3x3/batch_norm/batch_norm/add_1", "RGB/inception_i3d/Mixed_4b/Branch_2/Conv3d_0b_3x3/batch_norm/batch_norm/add_1", "RGB/inception_i3d/Mixed_4b/Branch_3/Conv3d_0b_1x1/batch_norm/batch_norm/add_1", "RGB/inception_i3d/Mixed_3b/concat/axis"], "attr": {"N": {"i": "4"}, "T": {"type": "DT_FLOAT"}, "Tidx": {"type": "DT_INT32"}}}, {"name": "RGB/inception_i3d/Mixed_4b/Branch_0/Conv3d_0a_1x1/Relu", "op": "Relu", "input": ["RGB/inception_i3d/Mixed_4b/concat"], "attr": {"T": {"type": "DT_FLOAT"}}}, {"name": "RGB/inception_i3d/Mixed_4c/Branch_3/MaxPool3d_0a_3x3", "op": "MaxPool3D", "input": ["RGB/inception_i3d/Mixed_4b/Branch_0/Conv3d_0a_1x1/Relu"], "attr": {"data_format": {"s": "TkRIV0M="}, "padding": {"s": "U0FNRQ=="}, "strides": {"list": {"i": ["1", "1", "1", "1", "1"]}}, "ksize": {"list": {"i": ["1", "3", "3", "3", "1"]}}, "T": {"type": "DT_FLOAT"}}}, {"name": "RGB/inception_i3d/Mixed_4c/Branch_0/Conv3d_0a_1x1/batch_norm/batch_norm/mul", "op": "Conv3D", "input": ["RGB/inception_i3d/Mixed_4b/Branch_0/Conv3d_0a_1x1/Relu", "RGB/inception_i3d/Mixed_4c/Branch_0/Conv3d_0a_1x1/conv_3d/convolution/merged_input"], "attr": {"padding": {"s": "U0FNRQ=="}, "T": {"type": "DT_FLOAT"}, "dilations": {"list": {"i": ["1", "1", "1", "1", "1"]}}, "data_format": {"s": "TkRIV0M="}, "strides": {"list": {"i": ["1", "1", "1", "1", "1"]}}}}, {"name": "RGB/inception_i3d/Mixed_4c/Branch_1/Conv3d_0a_1x1/batch_norm/batch_norm/mul", "op": "Conv3D", "input": ["RGB/inception_i3d/Mixed_4b/Branch_0/Conv3d_0a_1x1/Relu", "RGB/inception_i3d/Mixed_4c/Branch_1/Conv3d_0a_1x1/conv_3d/convolution/merged_input"], "attr": {"data_format": {"s": "TkRIV0M="}, "dilations": {"list": {"i": ["1", "1", "1", "1", "1"]}}, "strides": {"list": {"i": ["1", "1", "1", "1", "1"]}}, "padding": {"s": "U0FNRQ=="}, "T": {"type": "DT_FLOAT"}}}, {"name": "RGB/inception_i3d/Mixed_4c/Branch_2/Conv3d_0a_1x1/batch_norm/batch_norm/mul", "op": "Conv3D", "input": ["RGB/inception_i3d/Mixed_4b/Branch_0/Conv3d_0a_1x1/Relu", "RGB/inception_i3d/Mixed_4c/Branch_2/Conv3d_0a_1x1/conv_3d/convolution/merged_input"], "attr": {"strides": {"list": {"i": ["1", "1", "1", "1", "1"]}}, "padding": {"s": "U0FNRQ=="}, "data_format": {"s": "TkRIV0M="}, "dilations": {"list": {"i": ["1", "1", "1", "1", "1"]}}, "T": {"type": "DT_FLOAT"}}}, {"name": "RGB/inception_i3d/Mixed_4c/Branch_3/Conv3d_0b_1x1/batch_norm/batch_norm/mul", "op": "Conv3D", "input": ["RGB/inception_i3d/Mixed_4c/Branch_3/MaxPool3d_0a_3x3", "RGB/inception_i3d/Mixed_4c/Branch_3/Conv3d_0b_1x1/conv_3d/convolution/merged_input"], "attr": {"strides": {"list": {"i": ["1", "1", "1", "1", "1"]}}, "data_format": {"s": "TkRIV0M="}, "dilations": {"list": {"i": ["1", "1", "1", "1", "1"]}}, "T": {"type": "DT_FLOAT"}, "padding": {"s": "U0FNRQ=="}}}, {"name": "RGB/inception_i3d/Mixed_4c/Branch_0/Conv3d_0a_1x1/batch_norm/batch_norm/add_1", "op": "AddV2", "input": ["RGB/inception_i3d/Mixed_4c/Branch_0/Conv3d_0a_1x1/batch_norm/batch_norm/mul", "RGB/inception_i3d/Mixed_4c/Branch_0/Conv3d_0a_1x1/batch_norm/batch_norm/sub"], "attr": {"T": {"type": "DT_FLOAT"}}}, {"name": "RGB/inception_i3d/Mixed_4c/Branch_1/Conv3d_0a_1x1/batch_norm/batch_norm/add_1", "op": "AddV2", "input": ["RGB/inception_i3d/Mixed_4c/Branch_1/Conv3d_0a_1x1/batch_norm/batch_norm/mul", "RGB/inception_i3d/Mixed_4c/Branch_1/Conv3d_0a_1x1/batch_norm/batch_norm/sub"], "attr": {"T": {"type": "DT_FLOAT"}}}, {"name": "RGB/inception_i3d/Mixed_4c/Branch_2/Conv3d_0a_1x1/batch_norm/batch_norm/add_1", "op": "AddV2", "input": ["RGB/inception_i3d/Mixed_4c/Branch_2/Conv3d_0a_1x1/batch_norm/batch_norm/mul", "RGB/inception_i3d/Mixed_4c/Branch_2/Conv3d_0a_1x1/batch_norm/batch_norm/sub"], "attr": {"T": {"type": "DT_FLOAT"}}}, {"name": "RGB/inception_i3d/Mixed_4c/Branch_3/Conv3d_0b_1x1/batch_norm/batch_norm/add_1", "op": "AddV2", "input": ["RGB/inception_i3d/Mixed_4c/Branch_3/Conv3d_0b_1x1/batch_norm/batch_norm/mul", "RGB/inception_i3d/Mixed_4c/Branch_3/Conv3d_0b_1x1/batch_norm/batch_norm/sub"], "attr": {"T": {"type": "DT_FLOAT"}}}, {"name": "RGB/inception_i3d/Mixed_4c/Branch_1/Conv3d_0a_1x1/Relu", "op": "Relu", "input": ["RGB/inception_i3d/Mixed_4c/Branch_1/Conv3d_0a_1x1/batch_norm/batch_norm/add_1"], "attr": {"T": {"type": "DT_FLOAT"}}}, {"name": "RGB/inception_i3d/Mixed_4c/Branch_2/Conv3d_0a_1x1/Relu", "op": "Relu", "input": ["RGB/inception_i3d/Mixed_4c/Branch_2/Conv3d_0a_1x1/batch_norm/batch_norm/add_1"], "attr": {"T": {"type": "DT_FLOAT"}}}, {"name": "RGB/inception_i3d/Mixed_4c/Branch_1/Conv3d_0b_3x3/batch_norm/batch_norm/mul", "op": "Conv3D", "input": ["RGB/inception_i3d/Mixed_4c/Branch_1/Conv3d_0a_1x1/Relu", "RGB/inception_i3d/Mixed_4c/Branch_1/Conv3d_0b_3x3/conv_3d/convolution/merged_input"], "attr": {"data_format": {"s": "TkRIV0M="}, "T": {"type": "DT_FLOAT"}, "strides": {"list": {"i": ["1", "1", "1", "1", "1"]}}, "padding": {"s": "U0FNRQ=="}, "dilations": {"list": {"i": ["1", "1", "1", "1", "1"]}}}}, {"name": "RGB/inception_i3d/Mixed_4c/Branch_2/Conv3d_0b_3x3/batch_norm/batch_norm/mul", "op": "Conv3D", "input": ["RGB/inception_i3d/Mixed_4c/Branch_2/Conv3d_0a_1x1/Relu", "RGB/inception_i3d/Mixed_4c/Branch_2/Conv3d_0b_3x3/conv_3d/convolution/merged_input"], "attr": {"strides": {"list": {"i": ["1", "1", "1", "1", "1"]}}, "dilations": {"list": {"i": ["1", "1", "1", "1", "1"]}}, "data_format": {"s": "TkRIV0M="}, "T": {"type": "DT_FLOAT"}, "padding": {"s": "U0FNRQ=="}}}, {"name": "RGB/inception_i3d/Mixed_4c/Branch_1/Conv3d_0b_3x3/batch_norm/batch_norm/add_1", "op": "AddV2", "input": ["RGB/inception_i3d/Mixed_4c/Branch_1/Conv3d_0b_3x3/batch_norm/batch_norm/mul", "RGB/inception_i3d/Mixed_4c/Branch_1/Conv3d_0b_3x3/batch_norm/batch_norm/sub"], "attr": {"T": {"type": "DT_FLOAT"}}}, {"name": "RGB/inception_i3d/Mixed_4c/Branch_2/Conv3d_0b_3x3/batch_norm/batch_norm/add_1", "op": "AddV2", "input": ["RGB/inception_i3d/Mixed_4c/Branch_2/Conv3d_0b_3x3/batch_norm/batch_norm/mul", "RGB/inception_i3d/Mixed_4c/Branch_2/Conv3d_0b_3x3/batch_norm/batch_norm/sub"], "attr": {"T": {"type": "DT_FLOAT"}}}, {"name": "RGB/inception_i3d/Mixed_4c/concat", "op": "ConcatV2", "input": ["RGB/inception_i3d/Mixed_4c/Branch_0/Conv3d_0a_1x1/batch_norm/batch_norm/add_1", "RGB/inception_i3d/Mixed_4c/Branch_1/Conv3d_0b_3x3/batch_norm/batch_norm/add_1", "RGB/inception_i3d/Mixed_4c/Branch_2/Conv3d_0b_3x3/batch_norm/batch_norm/add_1", "RGB/inception_i3d/Mixed_4c/Branch_3/Conv3d_0b_1x1/batch_norm/batch_norm/add_1", "RGB/inception_i3d/Mixed_3b/concat/axis"], "attr": {"N": {"i": "4"}, "Tidx": {"type": "DT_INT32"}, "T": {"type": "DT_FLOAT"}}}, {"name": "RGB/inception_i3d/Mixed_4c/Branch_0/Conv3d_0a_1x1/Relu", "op": "Relu", "input": ["RGB/inception_i3d/Mixed_4c/concat"], "attr": {"T": {"type": "DT_FLOAT"}}}, {"name": "RGB/inception_i3d/Mixed_4d/Branch_3/MaxPool3d_0a_3x3", "op": "MaxPool3D", "input": ["RGB/inception_i3d/Mixed_4c/Branch_0/Conv3d_0a_1x1/Relu"], "attr": {"strides": {"list": {"i": ["1", "1", "1", "1", "1"]}}, "padding": {"s": "U0FNRQ=="}, "data_format": {"s": "TkRIV0M="}, "T": {"type": "DT_FLOAT"}, "ksize": {"list": {"i": ["1", "3", "3", "3", "1"]}}}}, {"name": "RGB/inception_i3d/Mixed_4d/Branch_0/Conv3d_0a_1x1/batch_norm/batch_norm/mul", "op": "Conv3D", "input": ["RGB/inception_i3d/Mixed_4c/Branch_0/Conv3d_0a_1x1/Relu", "RGB/inception_i3d/Mixed_4d/Branch_0/Conv3d_0a_1x1/conv_3d/convolution/merged_input"], "attr": {"padding": {"s": "U0FNRQ=="}, "dilations": {"list": {"i": ["1", "1", "1", "1", "1"]}}, "data_format": {"s": "TkRIV0M="}, "T": {"type": "DT_FLOAT"}, "strides": {"list": {"i": ["1", "1", "1", "1", "1"]}}}}, {"name": "RGB/inception_i3d/Mixed_4d/Branch_1/Conv3d_0a_1x1/batch_norm/batch_norm/mul", "op": "Conv3D", "input": ["RGB/inception_i3d/Mixed_4c/Branch_0/Conv3d_0a_1x1/Relu", "RGB/inception_i3d/Mixed_4d/Branch_1/Conv3d_0a_1x1/conv_3d/convolution/merged_input"], "attr": {"data_format": {"s": "TkRIV0M="}, "strides": {"list": {"i": ["1", "1", "1", "1", "1"]}}, "padding": {"s": "U0FNRQ=="}, "T": {"type": "DT_FLOAT"}, "dilations": {"list": {"i": ["1", "1", "1", "1", "1"]}}}}, {"name": "RGB/inception_i3d/Mixed_4d/Branch_2/Conv3d_0a_1x1/batch_norm/batch_norm/mul", "op": "Conv3D", "input": ["RGB/inception_i3d/Mixed_4c/Branch_0/Conv3d_0a_1x1/Relu", "RGB/inception_i3d/Mixed_4d/Branch_2/Conv3d_0a_1x1/conv_3d/convolution/merged_input"], "attr": {"data_format": {"s": "TkRIV0M="}, "strides": {"list": {"i": ["1", "1", "1", "1", "1"]}}, "T": {"type": "DT_FLOAT"}, "dilations": {"list": {"i": ["1", "1", "1", "1", "1"]}}, "padding": {"s": "U0FNRQ=="}}}, {"name": "RGB/inception_i3d/Mixed_4d/Branch_3/Conv3d_0b_1x1/batch_norm/batch_norm/mul", "op": "Conv3D", "input": ["RGB/inception_i3d/Mixed_4d/Branch_3/MaxPool3d_0a_3x3", "RGB/inception_i3d/Mixed_4d/Branch_3/Conv3d_0b_1x1/conv_3d/convolution/merged_input"], "attr": {"T": {"type": "DT_FLOAT"}, "strides": {"list": {"i": ["1", "1", "1", "1", "1"]}}, "dilations": {"list": {"i": ["1", "1", "1", "1", "1"]}}, "data_format": {"s": "TkRIV0M="}, "padding": {"s": "U0FNRQ=="}}}, {"name": "RGB/inception_i3d/Mixed_4d/Branch_0/Conv3d_0a_1x1/batch_norm/batch_norm/add_1", "op": "AddV2", "input": ["RGB/inception_i3d/Mixed_4d/Branch_0/Conv3d_0a_1x1/batch_norm/batch_norm/mul", "RGB/inception_i3d/Mixed_4d/Branch_0/Conv3d_0a_1x1/batch_norm/batch_norm/sub"], "attr": {"T": {"type": "DT_FLOAT"}}}, {"name": "RGB/inception_i3d/Mixed_4d/Branch_1/Conv3d_0a_1x1/batch_norm/batch_norm/add_1", "op": "AddV2", "input": ["RGB/inception_i3d/Mixed_4d/Branch_1/Conv3d_0a_1x1/batch_norm/batch_norm/mul", "RGB/inception_i3d/Mixed_4d/Branch_1/Conv3d_0a_1x1/batch_norm/batch_norm/sub"], "attr": {"T": {"type": "DT_FLOAT"}}}, {"name": "RGB/inception_i3d/Mixed_4d/Branch_2/Conv3d_0a_1x1/batch_norm/batch_norm/add_1", "op": "AddV2", "input": ["RGB/inception_i3d/Mixed_4d/Branch_2/Conv3d_0a_1x1/batch_norm/batch_norm/mul", "RGB/inception_i3d/Mixed_4d/Branch_2/Conv3d_0a_1x1/batch_norm/batch_norm/sub"], "attr": {"T": {"type": "DT_FLOAT"}}}, {"name": "RGB/inception_i3d/Mixed_4d/Branch_3/Conv3d_0b_1x1/batch_norm/batch_norm/add_1", "op": "AddV2", "input": ["RGB/inception_i3d/Mixed_4d/Branch_3/Conv3d_0b_1x1/batch_norm/batch_norm/mul", "RGB/inception_i3d/Mixed_4d/Branch_3/Conv3d_0b_1x1/batch_norm/batch_norm/sub"], "attr": {"T": {"type": "DT_FLOAT"}}}, {"name": "RGB/inception_i3d/Mixed_4d/Branch_1/Conv3d_0a_1x1/Relu", "op": "Relu", "input": ["RGB/inception_i3d/Mixed_4d/Branch_1/Conv3d_0a_1x1/batch_norm/batch_norm/add_1"], "attr": {"T": {"type": "DT_FLOAT"}}}, {"name": "RGB/inception_i3d/Mixed_4d/Branch_2/Conv3d_0a_1x1/Relu", "op": "Relu", "input": ["RGB/inception_i3d/Mixed_4d/Branch_2/Conv3d_0a_1x1/batch_norm/batch_norm/add_1"], "attr": {"T": {"type": "DT_FLOAT"}}}, {"name": "RGB/inception_i3d/Mixed_4d/Branch_1/Conv3d_0b_3x3/batch_norm/batch_norm/mul", "op": "Conv3D", "input": ["RGB/inception_i3d/Mixed_4d/Branch_1/Conv3d_0a_1x1/Relu", "RGB/inception_i3d/Mixed_4d/Branch_1/Conv3d_0b_3x3/conv_3d/convolution/merged_input"], "attr": {"padding": {"s": "U0FNRQ=="}, "data_format": {"s": "TkRIV0M="}, "strides": {"list": {"i": ["1", "1", "1", "1", "1"]}}, "dilations": {"list": {"i": ["1", "1", "1", "1", "1"]}}, "T": {"type": "DT_FLOAT"}}}, {"name": "RGB/inception_i3d/Mixed_4d/Branch_2/Conv3d_0b_3x3/batch_norm/batch_norm/mul", "op": "Conv3D", "input": ["RGB/inception_i3d/Mixed_4d/Branch_2/Conv3d_0a_1x1/Relu", "RGB/inception_i3d/Mixed_4d/Branch_2/Conv3d_0b_3x3/conv_3d/convolution/merged_input"], "attr": {"data_format": {"s": "TkRIV0M="}, "strides": {"list": {"i": ["1", "1", "1", "1", "1"]}}, "dilations": {"list": {"i": ["1", "1", "1", "1", "1"]}}, "T": {"type": "DT_FLOAT"}, "padding": {"s": "U0FNRQ=="}}}, {"name": "RGB/inception_i3d/Mixed_4d/Branch_1/Conv3d_0b_3x3/batch_norm/batch_norm/add_1", "op": "AddV2", "input": ["RGB/inception_i3d/Mixed_4d/Branch_1/Conv3d_0b_3x3/batch_norm/batch_norm/mul", "RGB/inception_i3d/Mixed_4d/Branch_1/Conv3d_0b_3x3/batch_norm/batch_norm/sub"], "attr": {"T": {"type": "DT_FLOAT"}}}, {"name": "RGB/inception_i3d/Mixed_4d/Branch_2/Conv3d_0b_3x3/batch_norm/batch_norm/add_1", "op": "AddV2", "input": ["RGB/inception_i3d/Mixed_4d/Branch_2/Conv3d_0b_3x3/batch_norm/batch_norm/mul", "RGB/inception_i3d/Mixed_4d/Branch_2/Conv3d_0b_3x3/batch_norm/batch_norm/sub"], "attr": {"T": {"type": "DT_FLOAT"}}}, {"name": "RGB/inception_i3d/Mixed_4d/concat", "op": "ConcatV2", "input": ["RGB/inception_i3d/Mixed_4d/Branch_0/Conv3d_0a_1x1/batch_norm/batch_norm/add_1", "RGB/inception_i3d/Mixed_4d/Branch_1/Conv3d_0b_3x3/batch_norm/batch_norm/add_1", "RGB/inception_i3d/Mixed_4d/Branch_2/Conv3d_0b_3x3/batch_norm/batch_norm/add_1", "RGB/inception_i3d/Mixed_4d/Branch_3/Conv3d_0b_1x1/batch_norm/batch_norm/add_1", "RGB/inception_i3d/Mixed_3b/concat/axis"], "attr": {"Tidx": {"type": "DT_INT32"}, "N": {"i": "4"}, "T": {"type": "DT_FLOAT"}}}, {"name": "RGB/inception_i3d/Mixed_4d/Branch_0/Conv3d_0a_1x1/Relu", "op": "Relu", "input": ["RGB/inception_i3d/Mixed_4d/concat"], "attr": {"T": {"type": "DT_FLOAT"}}}, {"name": "RGB/inception_i3d/Mixed_4e/Branch_3/MaxPool3d_0a_3x3", "op": "MaxPool3D", "input": ["RGB/inception_i3d/Mixed_4d/Branch_0/Conv3d_0a_1x1/Relu"], "attr": {"padding": {"s": "U0FNRQ=="}, "ksize": {"list": {"i": ["1", "3", "3", "3", "1"]}}, "T": {"type": "DT_FLOAT"}, "data_format": {"s": "TkRIV0M="}, "strides": {"list": {"i": ["1", "1", "1", "1", "1"]}}}}, {"name": "RGB/inception_i3d/Mixed_4e/Branch_0/Conv3d_0a_1x1/batch_norm/batch_norm/mul", "op": "Conv3D", "input": ["RGB/inception_i3d/Mixed_4d/Branch_0/Conv3d_0a_1x1/Relu", "RGB/inception_i3d/Mixed_4e/Branch_0/Conv3d_0a_1x1/conv_3d/convolution/merged_input"], "attr": {"data_format": {"s": "TkRIV0M="}, "dilations": {"list": {"i": ["1", "1", "1", "1", "1"]}}, "T": {"type": "DT_FLOAT"}, "strides": {"list": {"i": ["1", "1", "1", "1", "1"]}}, "padding": {"s": "U0FNRQ=="}}}, {"name": "RGB/inception_i3d/Mixed_4e/Branch_1/Conv3d_0a_1x1/batch_norm/batch_norm/mul", "op": "Conv3D", "input": ["RGB/inception_i3d/Mixed_4d/Branch_0/Conv3d_0a_1x1/Relu", "RGB/inception_i3d/Mixed_4e/Branch_1/Conv3d_0a_1x1/conv_3d/convolution/merged_input"], "attr": {"strides": {"list": {"i": ["1", "1", "1", "1", "1"]}}, "data_format": {"s": "TkRIV0M="}, "dilations": {"list": {"i": ["1", "1", "1", "1", "1"]}}, "padding": {"s": "U0FNRQ=="}, "T": {"type": "DT_FLOAT"}}}, {"name": "RGB/inception_i3d/Mixed_4e/Branch_2/Conv3d_0a_1x1/batch_norm/batch_norm/mul", "op": "Conv3D", "input": ["RGB/inception_i3d/Mixed_4d/Branch_0/Conv3d_0a_1x1/Relu", "RGB/inception_i3d/Mixed_4e/Branch_2/Conv3d_0a_1x1/conv_3d/convolution/merged_input"], "attr": {"padding": {"s": "U0FNRQ=="}, "T": {"type": "DT_FLOAT"}, "data_format": {"s": "TkRIV0M="}, "strides": {"list": {"i": ["1", "1", "1", "1", "1"]}}, "dilations": {"list": {"i": ["1", "1", "1", "1", "1"]}}}}, {"name": "RGB/inception_i3d/Mixed_4e/Branch_3/Conv3d_0b_1x1/batch_norm/batch_norm/mul", "op": "Conv3D", "input": ["RGB/inception_i3d/Mixed_4e/Branch_3/MaxPool3d_0a_3x3", "RGB/inception_i3d/Mixed_4e/Branch_3/Conv3d_0b_1x1/conv_3d/convolution/merged_input"], "attr": {"padding": {"s": "U0FNRQ=="}, "dilations": {"list": {"i": ["1", "1", "1", "1", "1"]}}, "strides": {"list": {"i": ["1", "1", "1", "1", "1"]}}, "data_format": {"s": "TkRIV0M="}, "T": {"type": "DT_FLOAT"}}}, {"name": "RGB/inception_i3d/Mixed_4e/Branch_0/Conv3d_0a_1x1/batch_norm/batch_norm/add_1", "op": "AddV2", "input": ["RGB/inception_i3d/Mixed_4e/Branch_0/Conv3d_0a_1x1/batch_norm/batch_norm/mul", "RGB/inception_i3d/Mixed_4e/Branch_0/Conv3d_0a_1x1/batch_norm/batch_norm/sub"], "attr": {"T": {"type": "DT_FLOAT"}}}, {"name": "RGB/inception_i3d/Mixed_4e/Branch_1/Conv3d_0a_1x1/batch_norm/batch_norm/add_1", "op": "AddV2", "input": ["RGB/inception_i3d/Mixed_4e/Branch_1/Conv3d_0a_1x1/batch_norm/batch_norm/mul", "RGB/inception_i3d/Mixed_4e/Branch_1/Conv3d_0a_1x1/batch_norm/batch_norm/sub"], "attr": {"T": {"type": "DT_FLOAT"}}}, {"name": "RGB/inception_i3d/Mixed_4e/Branch_2/Conv3d_0a_1x1/batch_norm/batch_norm/add_1", "op": "AddV2", "input": ["RGB/inception_i3d/Mixed_4e/Branch_2/Conv3d_0a_1x1/batch_norm/batch_norm/mul", "RGB/inception_i3d/Mixed_4e/Branch_2/Conv3d_0a_1x1/batch_norm/batch_norm/sub"], "attr": {"T": {"type": "DT_FLOAT"}}}, {"name": "RGB/inception_i3d/Mixed_4e/Branch_3/Conv3d_0b_1x1/batch_norm/batch_norm/add_1", "op": "AddV2", "input": ["RGB/inception_i3d/Mixed_4e/Branch_3/Conv3d_0b_1x1/batch_norm/batch_norm/mul", "RGB/inception_i3d/Mixed_4e/Branch_3/Conv3d_0b_1x1/batch_norm/batch_norm/sub"], "attr": {"T": {"type": "DT_FLOAT"}}}, {"name": "RGB/inception_i3d/Mixed_4e/Branch_1/Conv3d_0a_1x1/Relu", "op": "Relu", "input": ["RGB/inception_i3d/Mixed_4e/Branch_1/Conv3d_0a_1x1/batch_norm/batch_norm/add_1"], "attr": {"T": {"type": "DT_FLOAT"}}}, {"name": "RGB/inception_i3d/Mixed_4e/Branch_2/Conv3d_0a_1x1/Relu", "op": "Relu", "input": ["RGB/inception_i3d/Mixed_4e/Branch_2/Conv3d_0a_1x1/batch_norm/batch_norm/add_1"], "attr": {"T": {"type": "DT_FLOAT"}}}, {"name": "RGB/inception_i3d/Mixed_4e/Branch_1/Conv3d_0b_3x3/batch_norm/batch_norm/mul", "op": "Conv3D", "input": ["RGB/inception_i3d/Mixed_4e/Branch_1/Conv3d_0a_1x1/Relu", "RGB/inception_i3d/Mixed_4e/Branch_1/Conv3d_0b_3x3/conv_3d/convolution/merged_input"], "attr": {"T": {"type": "DT_FLOAT"}, "padding": {"s": "U0FNRQ=="}, "strides": {"list": {"i": ["1", "1", "1", "1", "1"]}}, "dilations": {"list": {"i": ["1", "1", "1", "1", "1"]}}, "data_format": {"s": "TkRIV0M="}}}, {"name": "RGB/inception_i3d/Mixed_4e/Branch_2/Conv3d_0b_3x3/batch_norm/batch_norm/mul", "op": "Conv3D", "input": ["RGB/inception_i3d/Mixed_4e/Branch_2/Conv3d_0a_1x1/Relu", "RGB/inception_i3d/Mixed_4e/Branch_2/Conv3d_0b_3x3/conv_3d/convolution/merged_input"], "attr": {"dilations": {"list": {"i": ["1", "1", "1", "1", "1"]}}, "data_format": {"s": "TkRIV0M="}, "strides": {"list": {"i": ["1", "1", "1", "1", "1"]}}, "padding": {"s": "U0FNRQ=="}, "T": {"type": "DT_FLOAT"}}}, {"name": "RGB/inception_i3d/Mixed_4e/Branch_1/Conv3d_0b_3x3/batch_norm/batch_norm/add_1", "op": "AddV2", "input": ["RGB/inception_i3d/Mixed_4e/Branch_1/Conv3d_0b_3x3/batch_norm/batch_norm/mul", "RGB/inception_i3d/Mixed_4e/Branch_1/Conv3d_0b_3x3/batch_norm/batch_norm/sub"], "attr": {"T": {"type": "DT_FLOAT"}}}, {"name": "RGB/inception_i3d/Mixed_4e/Branch_2/Conv3d_0b_3x3/batch_norm/batch_norm/add_1", "op": "AddV2", "input": ["RGB/inception_i3d/Mixed_4e/Branch_2/Conv3d_0b_3x3/batch_norm/batch_norm/mul", "RGB/inception_i3d/Mixed_4e/Branch_2/Conv3d_0b_3x3/batch_norm/batch_norm/sub"], "attr": {"T": {"type": "DT_FLOAT"}}}, {"name": "RGB/inception_i3d/Mixed_4e/concat", "op": "ConcatV2", "input": ["RGB/inception_i3d/Mixed_4e/Branch_0/Conv3d_0a_1x1/batch_norm/batch_norm/add_1", "RGB/inception_i3d/Mixed_4e/Branch_1/Conv3d_0b_3x3/batch_norm/batch_norm/add_1", "RGB/inception_i3d/Mixed_4e/Branch_2/Conv3d_0b_3x3/batch_norm/batch_norm/add_1", "RGB/inception_i3d/Mixed_4e/Branch_3/Conv3d_0b_1x1/batch_norm/batch_norm/add_1", "RGB/inception_i3d/Mixed_3b/concat/axis"], "attr": {"N": {"i": "4"}, "Tidx": {"type": "DT_INT32"}, "T": {"type": "DT_FLOAT"}}}, {"name": "RGB/inception_i3d/Mixed_4e/Branch_0/Conv3d_0a_1x1/Relu", "op": "Relu", "input": ["RGB/inception_i3d/Mixed_4e/concat"], "attr": {"T": {"type": "DT_FLOAT"}}}, {"name": "RGB/inception_i3d/Mixed_4f/Branch_2/Conv3d_0a_1x1/batch_norm/batch_norm/mul", "op": "Conv3D", "input": ["RGB/inception_i3d/Mixed_4e/Branch_0/Conv3d_0a_1x1/Relu", "RGB/inception_i3d/Mixed_4f/Branch_2/Conv3d_0a_1x1/conv_3d/convolution/merged_input"], "attr": {"dilations": {"list": {"i": ["1", "1", "1", "1", "1"]}}, "T": {"type": "DT_FLOAT"}, "padding": {"s": "U0FNRQ=="}, "data_format": {"s": "TkRIV0M="}, "strides": {"list": {"i": ["1", "1", "1", "1", "1"]}}}}, {"name": "RGB/inception_i3d/Mixed_4f/Branch_3/MaxPool3d_0a_3x3", "op": "MaxPool3D", "input": ["RGB/inception_i3d/Mixed_4e/Branch_0/Conv3d_0a_1x1/Relu"], "attr": {"T": {"type": "DT_FLOAT"}, "ksize": {"list": {"i": ["1", "3", "3", "3", "1"]}}, "strides": {"list": {"i": ["1", "1", "1", "1", "1"]}}, "padding": {"s": "U0FNRQ=="}, "data_format": {"s": "TkRIV0M="}}}, {"name": "RGB/inception_i3d/Mixed_4f/Branch_1/Conv3d_0a_1x1/batch_norm/batch_norm/mul", "op": "Conv3D", "input": ["RGB/inception_i3d/Mixed_4e/Branch_0/Conv3d_0a_1x1/Relu", "RGB/inception_i3d/Mixed_4f/Branch_1/Conv3d_0a_1x1/conv_3d/convolution/merged_input"], "attr": {"dilations": {"list": {"i": ["1", "1", "1", "1", "1"]}}, "T": {"type": "DT_FLOAT"}, "data_format": {"s": "TkRIV0M="}, "strides": {"list": {"i": ["1", "1", "1", "1", "1"]}}, "padding": {"s": "U0FNRQ=="}}}, {"name": "RGB/inception_i3d/Mixed_4f/Branch_0/Conv3d_0a_1x1/batch_norm/batch_norm/mul", "op": "Conv3D", "input": ["RGB/inception_i3d/Mixed_4e/Branch_0/Conv3d_0a_1x1/Relu", "RGB/inception_i3d/Mixed_4f/Branch_0/Conv3d_0a_1x1/conv_3d/convolution/merged_input"], "attr": {"strides": {"list": {"i": ["1", "1", "1", "1", "1"]}}, "padding": {"s": "U0FNRQ=="}, "data_format": {"s": "TkRIV0M="}, "T": {"type": "DT_FLOAT"}, "dilations": {"list": {"i": ["1", "1", "1", "1", "1"]}}}}, {"name": "RGB/inception_i3d/Mixed_4f/Branch_2/Conv3d_0a_1x1/batch_norm/batch_norm/add_1", "op": "AddV2", "input": ["RGB/inception_i3d/Mixed_4f/Branch_2/Conv3d_0a_1x1/batch_norm/batch_norm/mul", "RGB/inception_i3d/Mixed_4f/Branch_2/Conv3d_0a_1x1/batch_norm/batch_norm/sub"], "attr": {"T": {"type": "DT_FLOAT"}}}, {"name": "RGB/inception_i3d/Mixed_4f/Branch_3/Conv3d_0b_1x1/batch_norm/batch_norm/mul", "op": "Conv3D", "input": ["RGB/inception_i3d/Mixed_4f/Branch_3/MaxPool3d_0a_3x3", "RGB/inception_i3d/Mixed_4f/Branch_3/Conv3d_0b_1x1/conv_3d/convolution/merged_input"], "attr": {"padding": {"s": "U0FNRQ=="}, "T": {"type": "DT_FLOAT"}, "dilations": {"list": {"i": ["1", "1", "1", "1", "1"]}}, "data_format": {"s": "TkRIV0M="}, "strides": {"list": {"i": ["1", "1", "1", "1", "1"]}}}}, {"name": "RGB/inception_i3d/Mixed_4f/Branch_1/Conv3d_0a_1x1/batch_norm/batch_norm/add_1", "op": "AddV2", "input": ["RGB/inception_i3d/Mixed_4f/Branch_1/Conv3d_0a_1x1/batch_norm/batch_norm/mul", "RGB/inception_i3d/Mixed_4f/Branch_1/Conv3d_0a_1x1/batch_norm/batch_norm/sub"], "attr": {"T": {"type": "DT_FLOAT"}}}, {"name": "RGB/inception_i3d/Mixed_4f/Branch_0/Conv3d_0a_1x1/batch_norm/batch_norm/add_1", "op": "AddV2", "input": ["RGB/inception_i3d/Mixed_4f/Branch_0/Conv3d_0a_1x1/batch_norm/batch_norm/mul", "RGB/inception_i3d/Mixed_4f/Branch_0/Conv3d_0a_1x1/batch_norm/batch_norm/sub"], "attr": {"T": {"type": "DT_FLOAT"}}}, {"name": "RGB/inception_i3d/Mixed_4f/Branch_2/Conv3d_0a_1x1/Relu", "op": "Relu", "input": ["RGB/inception_i3d/Mixed_4f/Branch_2/Conv3d_0a_1x1/batch_norm/batch_norm/add_1"], "attr": {"T": {"type": "DT_FLOAT"}}}, {"name": "RGB/inception_i3d/Mixed_4f/Branch_3/Conv3d_0b_1x1/batch_norm/batch_norm/add_1", "op": "AddV2", "input": ["RGB/inception_i3d/Mixed_4f/Branch_3/Conv3d_0b_1x1/batch_norm/batch_norm/mul", "RGB/inception_i3d/Mixed_4f/Branch_3/Conv3d_0b_1x1/batch_norm/batch_norm/sub"], "attr": {"T": {"type": "DT_FLOAT"}}}, {"name": "RGB/inception_i3d/Mixed_4f/Branch_1/Conv3d_0a_1x1/Relu", "op": "Relu", "input": ["RGB/inception_i3d/Mixed_4f/Branch_1/Conv3d_0a_1x1/batch_norm/batch_norm/add_1"], "attr": {"T": {"type": "DT_FLOAT"}}}, {"name": "RGB/inception_i3d/Mixed_4f/Branch_2/Conv3d_0b_3x3/batch_norm/batch_norm/mul", "op": "Conv3D", "input": ["RGB/inception_i3d/Mixed_4f/Branch_2/Conv3d_0a_1x1/Relu", "RGB/inception_i3d/Mixed_4f/Branch_2/Conv3d_0b_3x3/conv_3d/convolution/merged_input"], "attr": {"dilations": {"list": {"i": ["1", "1", "1", "1", "1"]}}, "padding": {"s": "U0FNRQ=="}, "T": {"type": "DT_FLOAT"}, "strides": {"list": {"i": ["1", "1", "1", "1", "1"]}}, "data_format": {"s": "TkRIV0M="}}}, {"name": "RGB/inception_i3d/Mixed_4f/Branch_1/Conv3d_0b_3x3/batch_norm/batch_norm/mul", "op": "Conv3D", "input": ["RGB/inception_i3d/Mixed_4f/Branch_1/Conv3d_0a_1x1/Relu", "RGB/inception_i3d/Mixed_4f/Branch_1/Conv3d_0b_3x3/conv_3d/convolution/merged_input"], "attr": {"padding": {"s": "U0FNRQ=="}, "dilations": {"list": {"i": ["1", "1", "1", "1", "1"]}}, "data_format": {"s": "TkRIV0M="}, "T": {"type": "DT_FLOAT"}, "strides": {"list": {"i": ["1", "1", "1", "1", "1"]}}}}, {"name": "RGB/inception_i3d/Mixed_4f/Branch_2/Conv3d_0b_3x3/batch_norm/batch_norm/add_1", "op": "AddV2", "input": ["RGB/inception_i3d/Mixed_4f/Branch_2/Conv3d_0b_3x3/batch_norm/batch_norm/mul", "RGB/inception_i3d/Mixed_4f/Branch_2/Conv3d_0b_3x3/batch_norm/batch_norm/sub"], "attr": {"T": {"type": "DT_FLOAT"}}}, {"name": "RGB/inception_i3d/Mixed_4f/Branch_1/Conv3d_0b_3x3/batch_norm/batch_norm/add_1", "op": "AddV2", "input": ["RGB/inception_i3d/Mixed_4f/Branch_1/Conv3d_0b_3x3/batch_norm/batch_norm/mul", "RGB/inception_i3d/Mixed_4f/Branch_1/Conv3d_0b_3x3/batch_norm/batch_norm/sub"], "attr": {"T": {"type": "DT_FLOAT"}}}, {"name": "RGB/inception_i3d/Mixed_4f/concat", "op": "ConcatV2", "input": ["RGB/inception_i3d/Mixed_4f/Branch_0/Conv3d_0a_1x1/batch_norm/batch_norm/add_1", "RGB/inception_i3d/Mixed_4f/Branch_1/Conv3d_0b_3x3/batch_norm/batch_norm/add_1", "RGB/inception_i3d/Mixed_4f/Branch_2/Conv3d_0b_3x3/batch_norm/batch_norm/add_1", "RGB/inception_i3d/Mixed_4f/Branch_3/Conv3d_0b_1x1/batch_norm/batch_norm/add_1", "RGB/inception_i3d/Mixed_3b/concat/axis"], "attr": {"T": {"type": "DT_FLOAT"}, "N": {"i": "4"}, "Tidx": {"type": "DT_INT32"}}}, {"name": "RGB/inception_i3d/MaxPool3d_5a_2x2", "op": "MaxPool3D", "input": ["RGB/inception_i3d/Mixed_4f/concat"], "attr": {"T": {"type": "DT_FLOAT"}, "padding": {"s": "U0FNRQ=="}, "ksize": {"list": {"i": ["1", "2", "2", "2", "1"]}}, "data_format": {"s": "TkRIV0M="}, "strides": {"list": {"i": ["1", "2", "2", "2", "1"]}}}}, {"name": "RGB/inception_i3d/Mixed_4f/Branch_0/Conv3d_0a_1x1/Relu", "op": "Relu", "input": ["RGB/inception_i3d/MaxPool3d_5a_2x2"], "attr": {"T": {"type": "DT_FLOAT"}}}, {"name": "RGB/inception_i3d/Mixed_5b/Branch_3/MaxPool3d_0a_3x3", "op": "MaxPool3D", "input": ["RGB/inception_i3d/Mixed_4f/Branch_0/Conv3d_0a_1x1/Relu"], "attr": {"data_format": {"s": "TkRIV0M="}, "ksize": {"list": {"i": ["1", "3", "3", "3", "1"]}}, "strides": {"list": {"i": ["1", "1", "1", "1", "1"]}}, "padding": {"s": "U0FNRQ=="}, "T": {"type": "DT_FLOAT"}}}, {"name": "RGB/inception_i3d/Mixed_5b/Branch_0/Conv3d_0a_1x1/batch_norm/batch_norm/mul", "op": "Conv3D", "input": ["RGB/inception_i3d/Mixed_4f/Branch_0/Conv3d_0a_1x1/Relu", "RGB/inception_i3d/Mixed_5b/Branch_0/Conv3d_0a_1x1/conv_3d/convolution/merged_input"], "attr": {"T": {"type": "DT_FLOAT"}, "dilations": {"list": {"i": ["1", "1", "1", "1", "1"]}}, "data_format": {"s": "TkRIV0M="}, "strides": {"list": {"i": ["1", "1", "1", "1", "1"]}}, "padding": {"s": "U0FNRQ=="}}}, {"name": "RGB/inception_i3d/Mixed_5b/Branch_1/Conv3d_0a_1x1/batch_norm/batch_norm/mul", "op": "Conv3D", "input": ["RGB/inception_i3d/Mixed_4f/Branch_0/Conv3d_0a_1x1/Relu", "RGB/inception_i3d/Mixed_5b/Branch_1/Conv3d_0a_1x1/conv_3d/convolution/merged_input"], "attr": {"dilations": {"list": {"i": ["1", "1", "1", "1", "1"]}}, "data_format": {"s": "TkRIV0M="}, "T": {"type": "DT_FLOAT"}, "padding": {"s": "U0FNRQ=="}, "strides": {"list": {"i": ["1", "1", "1", "1", "1"]}}}}, {"name": "RGB/inception_i3d/Mixed_5b/Branch_2/Conv3d_0a_1x1/batch_norm/batch_norm/mul", "op": "Conv3D", "input": ["RGB/inception_i3d/Mixed_4f/Branch_0/Conv3d_0a_1x1/Relu", "RGB/inception_i3d/Mixed_5b/Branch_2/Conv3d_0a_1x1/conv_3d/convolution/merged_input"], "attr": {"strides": {"list": {"i": ["1", "1", "1", "1", "1"]}}, "dilations": {"list": {"i": ["1", "1", "1", "1", "1"]}}, "padding": {"s": "U0FNRQ=="}, "data_format": {"s": "TkRIV0M="}, "T": {"type": "DT_FLOAT"}}}, {"name": "RGB/inception_i3d/Mixed_5b/Branch_3/Conv3d_0b_1x1/batch_norm/batch_norm/mul", "op": "Conv3D", "input": ["RGB/inception_i3d/Mixed_5b/Branch_3/MaxPool3d_0a_3x3", "RGB/inception_i3d/Mixed_5b/Branch_3/Conv3d_0b_1x1/conv_3d/convolution/merged_input"], "attr": {"padding": {"s": "U0FNRQ=="}, "T": {"type": "DT_FLOAT"}, "data_format": {"s": "TkRIV0M="}, "strides": {"list": {"i": ["1", "1", "1", "1", "1"]}}, "dilations": {"list": {"i": ["1", "1", "1", "1", "1"]}}}}, {"name": "RGB/inception_i3d/Mixed_5b/Branch_0/Conv3d_0a_1x1/batch_norm/batch_norm/add_1", "op": "AddV2", "input": ["RGB/inception_i3d/Mixed_5b/Branch_0/Conv3d_0a_1x1/batch_norm/batch_norm/mul", "RGB/inception_i3d/Mixed_5b/Branch_0/Conv3d_0a_1x1/batch_norm/batch_norm/sub"], "attr": {"T": {"type": "DT_FLOAT"}}}, {"name": "RGB/inception_i3d/Mixed_5b/Branch_1/Conv3d_0a_1x1/batch_norm/batch_norm/add_1", "op": "AddV2", "input": ["RGB/inception_i3d/Mixed_5b/Branch_1/Conv3d_0a_1x1/batch_norm/batch_norm/mul", "RGB/inception_i3d/Mixed_5b/Branch_1/Conv3d_0a_1x1/batch_norm/batch_norm/sub"], "attr": {"T": {"type": "DT_FLOAT"}}}, {"name": "RGB/inception_i3d/Mixed_5b/Branch_2/Conv3d_0a_1x1/batch_norm/batch_norm/add_1", "op": "AddV2", "input": ["RGB/inception_i3d/Mixed_5b/Branch_2/Conv3d_0a_1x1/batch_norm/batch_norm/mul", "RGB/inception_i3d/Mixed_5b/Branch_2/Conv3d_0a_1x1/batch_norm/batch_norm/sub"], "attr": {"T": {"type": "DT_FLOAT"}}}, {"name": "RGB/inception_i3d/Mixed_5b/Branch_3/Conv3d_0b_1x1/batch_norm/batch_norm/add_1", "op": "AddV2", "input": ["RGB/inception_i3d/Mixed_5b/Branch_3/Conv3d_0b_1x1/batch_norm/batch_norm/mul", "RGB/inception_i3d/Mixed_5b/Branch_3/Conv3d_0b_1x1/batch_norm/batch_norm/sub"], "attr": {"T": {"type": "DT_FLOAT"}}}, {"name": "RGB/inception_i3d/Mixed_5b/Branch_1/Conv3d_0a_1x1/Relu", "op": "Relu", "input": ["RGB/inception_i3d/Mixed_5b/Branch_1/Conv3d_0a_1x1/batch_norm/batch_norm/add_1"], "attr": {"T": {"type": "DT_FLOAT"}}}, {"name": "RGB/inception_i3d/Mixed_5b/Branch_2/Conv3d_0a_1x1/Relu", "op": "Relu", "input": ["RGB/inception_i3d/Mixed_5b/Branch_2/Conv3d_0a_1x1/batch_norm/batch_norm/add_1"], "attr": {"T": {"type": "DT_FLOAT"}}}, {"name": "RGB/inception_i3d/Mixed_5b/Branch_1/Conv3d_0b_3x3/batch_norm/batch_norm/mul", "op": "Conv3D", "input": ["RGB/inception_i3d/Mixed_5b/Branch_1/Conv3d_0a_1x1/Relu", "RGB/inception_i3d/Mixed_5b/Branch_1/Conv3d_0b_3x3/conv_3d/convolution/merged_input"], "attr": {"T": {"type": "DT_FLOAT"}, "strides": {"list": {"i": ["1", "1", "1", "1", "1"]}}, "data_format": {"s": "TkRIV0M="}, "dilations": {"list": {"i": ["1", "1", "1", "1", "1"]}}, "padding": {"s": "U0FNRQ=="}}}, {"name": "RGB/inception_i3d/Mixed_5b/Branch_2/Conv3d_0a_3x3/batch_norm/batch_norm/mul", "op": "Conv3D", "input": ["RGB/inception_i3d/Mixed_5b/Branch_2/Conv3d_0a_1x1/Relu", "RGB/inception_i3d/Mixed_5b/Branch_2/Conv3d_0a_3x3/conv_3d/convolution/merged_input"], "attr": {"padding": {"s": "U0FNRQ=="}, "data_format": {"s": "TkRIV0M="}, "dilations": {"list": {"i": ["1", "1", "1", "1", "1"]}}, "strides": {"list": {"i": ["1", "1", "1", "1", "1"]}}, "T": {"type": "DT_FLOAT"}}}, {"name": "RGB/inception_i3d/Mixed_5b/Branch_1/Conv3d_0b_3x3/batch_norm/batch_norm/add_1", "op": "AddV2", "input": ["RGB/inception_i3d/Mixed_5b/Branch_1/Conv3d_0b_3x3/batch_norm/batch_norm/mul", "RGB/inception_i3d/Mixed_5b/Branch_1/Conv3d_0b_3x3/batch_norm/batch_norm/sub"], "attr": {"T": {"type": "DT_FLOAT"}}}, {"name": "RGB/inception_i3d/Mixed_5b/Branch_2/Conv3d_0a_3x3/batch_norm/batch_norm/add_1", "op": "AddV2", "input": ["RGB/inception_i3d/Mixed_5b/Branch_2/Conv3d_0a_3x3/batch_norm/batch_norm/mul", "RGB/inception_i3d/Mixed_5b/Branch_2/Conv3d_0a_3x3/batch_norm/batch_norm/sub"], "attr": {"T": {"type": "DT_FLOAT"}}}, {"name": "RGB/inception_i3d/Mixed_5b/concat", "op": "ConcatV2", "input": ["RGB/inception_i3d/Mixed_5b/Branch_0/Conv3d_0a_1x1/batch_norm/batch_norm/add_1", "RGB/inception_i3d/Mixed_5b/Branch_1/Conv3d_0b_3x3/batch_norm/batch_norm/add_1", "RGB/inception_i3d/Mixed_5b/Branch_2/Conv3d_0a_3x3/batch_norm/batch_norm/add_1", "RGB/inception_i3d/Mixed_5b/Branch_3/Conv3d_0b_1x1/batch_norm/batch_norm/add_1", "RGB/inception_i3d/Mixed_3b/concat/axis"], "attr": {"N": {"i": "4"}, "T": {"type": "DT_FLOAT"}, "Tidx": {"type": "DT_INT32"}}}, {"name": "RGB/inception_i3d/Mixed_5b/Branch_0/Conv3d_0a_1x1/Relu", "op": "Relu", "input": ["RGB/inception_i3d/Mixed_5b/concat"], "attr": {"T": {"type": "DT_FLOAT"}}}, {"name": "RGB/inception_i3d/Mixed_5c/Branch_3/MaxPool3d_0a_3x3", "op": "MaxPool3D", "input": ["RGB/inception_i3d/Mixed_5b/Branch_0/Conv3d_0a_1x1/Relu"], "attr": {"padding": {"s": "U0FNRQ=="}, "data_format": {"s": "TkRIV0M="}, "T": {"type": "DT_FLOAT"}, "strides": {"list": {"i": ["1", "1", "1", "1", "1"]}}, "ksize": {"list": {"i": ["1", "3", "3", "3", "1"]}}}}, {"name": "RGB/inception_i3d/Mixed_5c/Branch_0/Conv3d_0a_1x1/batch_norm/batch_norm/mul", "op": "Conv3D", "input": ["RGB/inception_i3d/Mixed_5b/Branch_0/Conv3d_0a_1x1/Relu", "RGB/inception_i3d/Mixed_5c/Branch_0/Conv3d_0a_1x1/conv_3d/convolution/merged_input"], "attr": {"padding": {"s": "U0FNRQ=="}, "strides": {"list": {"i": ["1", "1", "1", "1", "1"]}}, "dilations": {"list": {"i": ["1", "1", "1", "1", "1"]}}, "data_format": {"s": "TkRIV0M="}, "T": {"type": "DT_FLOAT"}}}, {"name": "RGB/inception_i3d/Mixed_5c/Branch_1/Conv3d_0a_1x1/batch_norm/batch_norm/mul", "op": "Conv3D", "input": ["RGB/inception_i3d/Mixed_5b/Branch_0/Conv3d_0a_1x1/Relu", "RGB/inception_i3d/Mixed_5c/Branch_1/Conv3d_0a_1x1/conv_3d/convolution/merged_input"], "attr": {"T": {"type": "DT_FLOAT"}, "dilations": {"list": {"i": ["1", "1", "1", "1", "1"]}}, "data_format": {"s": "TkRIV0M="}, "strides": {"list": {"i": ["1", "1", "1", "1", "1"]}}, "padding": {"s": "U0FNRQ=="}}}, {"name": "RGB/inception_i3d/Mixed_5c/Branch_2/Conv3d_0a_1x1/batch_norm/batch_norm/mul", "op": "Conv3D", "input": ["RGB/inception_i3d/Mixed_5b/Branch_0/Conv3d_0a_1x1/Relu", "RGB/inception_i3d/Mixed_5c/Branch_2/Conv3d_0a_1x1/conv_3d/convolution/merged_input"], "attr": {"dilations": {"list": {"i": ["1", "1", "1", "1", "1"]}}, "T": {"type": "DT_FLOAT"}, "data_format": {"s": "TkRIV0M="}, "padding": {"s": "U0FNRQ=="}, "strides": {"list": {"i": ["1", "1", "1", "1", "1"]}}}}, {"name": "RGB/inception_i3d/Mixed_5c/Branch_3/Conv3d_0b_1x1/batch_norm/batch_norm/mul", "op": "Conv3D", "input": ["RGB/inception_i3d/Mixed_5c/Branch_3/MaxPool3d_0a_3x3", "RGB/inception_i3d/Mixed_5c/Branch_3/Conv3d_0b_1x1/conv_3d/convolution/merged_input"], "attr": {"data_format": {"s": "TkRIV0M="}, "dilations": {"list": {"i": ["1", "1", "1", "1", "1"]}}, "strides": {"list": {"i": ["1", "1", "1", "1", "1"]}}, "padding": {"s": "U0FNRQ=="}, "T": {"type": "DT_FLOAT"}}}, {"name": "RGB/inception_i3d/Mixed_5c/Branch_0/Conv3d_0a_1x1/batch_norm/batch_norm/add_1", "op": "AddV2", "input": ["RGB/inception_i3d/Mixed_5c/Branch_0/Conv3d_0a_1x1/batch_norm/batch_norm/mul", "RGB/inception_i3d/Mixed_5c/Branch_0/Conv3d_0a_1x1/batch_norm/batch_norm/sub"], "attr": {"T": {"type": "DT_FLOAT"}}}, {"name": "RGB/inception_i3d/Mixed_5c/Branch_1/Conv3d_0a_1x1/batch_norm/batch_norm/add_1", "op": "AddV2", "input": ["RGB/inception_i3d/Mixed_5c/Branch_1/Conv3d_0a_1x1/batch_norm/batch_norm/mul", "RGB/inception_i3d/Mixed_5c/Branch_1/Conv3d_0a_1x1/batch_norm/batch_norm/sub"], "attr": {"T": {"type": "DT_FLOAT"}}}, {"name": "RGB/inception_i3d/Mixed_5c/Branch_2/Conv3d_0a_1x1/batch_norm/batch_norm/add_1", "op": "AddV2", "input": ["RGB/inception_i3d/Mixed_5c/Branch_2/Conv3d_0a_1x1/batch_norm/batch_norm/mul", "RGB/inception_i3d/Mixed_5c/Branch_2/Conv3d_0a_1x1/batch_norm/batch_norm/sub"], "attr": {"T": {"type": "DT_FLOAT"}}}, {"name": "RGB/inception_i3d/Mixed_5c/Branch_3/Conv3d_0b_1x1/batch_norm/batch_norm/add_1", "op": "AddV2", "input": ["RGB/inception_i3d/Mixed_5c/Branch_3/Conv3d_0b_1x1/batch_norm/batch_norm/mul", "RGB/inception_i3d/Mixed_5c/Branch_3/Conv3d_0b_1x1/batch_norm/batch_norm/sub"], "attr": {"T": {"type": "DT_FLOAT"}}}, {"name": "RGB/inception_i3d/Mixed_5c/Branch_1/Conv3d_0a_1x1/Relu", "op": "Relu", "input": ["RGB/inception_i3d/Mixed_5c/Branch_1/Conv3d_0a_1x1/batch_norm/batch_norm/add_1"], "attr": {"T": {"type": "DT_FLOAT"}}}, {"name": "RGB/inception_i3d/Mixed_5c/Branch_2/Conv3d_0a_1x1/Relu", "op": "Relu", "input": ["RGB/inception_i3d/Mixed_5c/Branch_2/Conv3d_0a_1x1/batch_norm/batch_norm/add_1"], "attr": {"T": {"type": "DT_FLOAT"}}}, {"name": "RGB/inception_i3d/Mixed_5c/Branch_1/Conv3d_0b_3x3/batch_norm/batch_norm/mul", "op": "Conv3D", "input": ["RGB/inception_i3d/Mixed_5c/Branch_1/Conv3d_0a_1x1/Relu", "RGB/inception_i3d/Mixed_5c/Branch_1/Conv3d_0b_3x3/conv_3d/convolution/merged_input"], "attr": {"padding": {"s": "U0FNRQ=="}, "T": {"type": "DT_FLOAT"}, "dilations": {"list": {"i": ["1", "1", "1", "1", "1"]}}, "data_format": {"s": "TkRIV0M="}, "strides": {"list": {"i": ["1", "1", "1", "1", "1"]}}}}, {"name": "RGB/inception_i3d/Mixed_5c/Branch_2/Conv3d_0b_3x3/batch_norm/batch_norm/mul", "op": "Conv3D", "input": ["RGB/inception_i3d/Mixed_5c/Branch_2/Conv3d_0a_1x1/Relu", "RGB/inception_i3d/Mixed_5c/Branch_2/Conv3d_0b_3x3/conv_3d/convolution/merged_input"], "attr": {"data_format": {"s": "TkRIV0M="}, "dilations": {"list": {"i": ["1", "1", "1", "1", "1"]}}, "padding": {"s": "U0FNRQ=="}, "T": {"type": "DT_FLOAT"}, "strides": {"list": {"i": ["1", "1", "1", "1", "1"]}}}}, {"name": "RGB/inception_i3d/Mixed_5c/Branch_1/Conv3d_0b_3x3/batch_norm/batch_norm/add_1", "op": "AddV2", "input": ["RGB/inception_i3d/Mixed_5c/Branch_1/Conv3d_0b_3x3/batch_norm/batch_norm/mul", "RGB/inception_i3d/Mixed_5c/Branch_1/Conv3d_0b_3x3/batch_norm/batch_norm/sub"], "attr": {"T": {"type": "DT_FLOAT"}}}, {"name": "RGB/inception_i3d/Mixed_5c/Branch_2/Conv3d_0b_3x3/batch_norm/batch_norm/add_1", "op": "AddV2", "input": ["RGB/inception_i3d/Mixed_5c/Branch_2/Conv3d_0b_3x3/batch_norm/batch_norm/mul", "RGB/inception_i3d/Mixed_5c/Branch_2/Conv3d_0b_3x3/batch_norm/batch_norm/sub"], "attr": {"T": {"type": "DT_FLOAT"}}}, {"name": "RGB/inception_i3d/Mixed_5c/concat", "op": "ConcatV2", "input": ["RGB/inception_i3d/Mixed_5c/Branch_0/Conv3d_0a_1x1/batch_norm/batch_norm/add_1", "RGB/inception_i3d/Mixed_5c/Branch_1/Conv3d_0b_3x3/batch_norm/batch_norm/add_1", "RGB/inception_i3d/Mixed_5c/Branch_2/Conv3d_0b_3x3/batch_norm/batch_norm/add_1", "RGB/inception_i3d/Mixed_5c/Branch_3/Conv3d_0b_1x1/batch_norm/batch_norm/add_1", "RGB/inception_i3d/Mixed_3b/concat/axis"], "attr": {"N": {"i": "4"}, "Tidx": {"type": "DT_INT32"}, "T": {"type": "DT_FLOAT"}}}, {"name": "RGB/inception_i3d/Mixed_5c/Branch_0/Conv3d_0a_1x1/Relu", "op": "Relu", "input": ["RGB/inception_i3d/Mixed_5c/concat"], "attr": {"T": {"type": "DT_FLOAT"}}}, {"name": "RGB/inception_i3d/Logits/AvgPool3D", "op": "AvgPool3D", "input": ["RGB/inception_i3d/Mixed_5c/Branch_0/Conv3d_0a_1x1/Relu"], "attr": {"strides": {"list": {"i": ["1", "1", "1", "1", "1"]}}, "ksize": {"list": {"i": ["1", "2", "7", "7", "1"]}}, "data_format": {"s": "TkRIV0M="}, "T": {"type": "DT_FLOAT"}, "padding": {"s": "VkFMSUQ="}}}, {"name": "RGB/inception_i3d/Logits/Conv3d_0c_1x1/conv_3d/convolution", "op": "Conv3D", "input": ["RGB/inception_i3d/Logits/AvgPool3D", "RGB/inception_i3d/Logits/Conv3d_0c_1x1/conv_3d/w"], "attr": {"data_format": {"s": "TkRIV0M="}, "T": {"type": "DT_FLOAT"}, "padding": {"s": "U0FNRQ=="}, "strides": {"list": {"i": ["1", "1", "1", "1", "1"]}}, "dilations": {"list": {"i": ["1", "1", "1", "1", "1"]}}}}, {"name": "RGB/inception_i3d/Logits/Conv3d_0c_1x1/conv_3d/add", "op": "AddV2", "input": ["RGB/inception_i3d/Logits/Conv3d_0c_1x1/conv_3d/Reshape", "RGB/inception_i3d/Logits/Conv3d_0c_1x1/conv_3d/convolution"], "attr": {"T": {"type": "DT_FLOAT"}}}, {"name": "RGB/inception_i3d/Logits/SpatialSqueeze", "op": "Squeeze", "input": ["RGB/inception_i3d/Logits/Conv3d_0c_1x1/conv_3d/add"], "attr": {"squeeze_dims": {"list": {"i": ["2", "3"]}}, "T": {"type": "DT_FLOAT"}}}, {"name": "RGB/inception_i3d/Mean", "op": "Mean", "input": ["RGB/inception_i3d/Logits/SpatialSqueeze", "RGB/inception_i3d/Mean/reduction_indices"], "attr": {"Tidx": {"type": "DT_INT32"}, "keep_dims": {"b": false}, "T": {"type": "DT_FLOAT"}}}, {"name": "TopKV2", "op": "TopKV2", "input": ["RGB/inception_i3d/Mean", "TopKV2/k"], "attr": {"T": {"type": "DT_FLOAT"}, "sorted": {"b": true}}}, {"name": "ToInt64", "op": "Cast", "input": ["TopKV2:1"], "attr": {"Truncate": {"b": false}, "DstT": {"type": "DT_INT64"}, "SrcT": {"type": "DT_INT32"}}}, {"name": "hash_table_Lookup/LookupTableFindV2", "op": "LookupTableFindV2", "input": ["index_to_string/hash_table", "ToInt64", "index_to_string/Const"], "attr": {"Tin": {"type": "DT_INT64"}, "Tout": {"type": "DT_STRING"}}}], "library": {}, "versions": {}}, "modelInitializer": {"node": [{"name": "Const", "op": "Const", "attr": {"dtype": {"type": "DT_STRING"}, "value": {"tensor": {"dtype": "DT_STRING", "tensorShape": {"dim": [{"size": "400"}]}}}}}, {"name": "index_to_string/Size", "op": "Const", "attr": {"dtype": {"type": "DT_INT32"}, "value": {"tensor": {"dtype": "DT_INT32", "tensorShape": {}}}}}, {"name": "index_to_string/range/start", "op": "Const", "attr": {"dtype": {"type": "DT_INT32"}, "value": {"tensor": {"dtype": "DT_INT32", "tensorShape": {}}}}}, {"name": "index_to_string/range/delta", "op": "Const", "attr": {"value": {"tensor": {"dtype": "DT_INT32", "tensorShape": {}}}, "dtype": {"type": "DT_INT32"}}}, {"name": "index_to_string/range", "op": "Range", "input": ["index_to_string/range/start", "index_to_string/Size", "index_to_string/range/delta"], "attr": {"Tidx": {"type": "DT_INT32"}}}, {"name": "index_to_string/Cast", "op": "Cast", "input": ["index_to_string/range"], "attr": {"DstT": {"type": "DT_INT64"}, "SrcT": {"type": "DT_INT32"}, "Truncate": {"b": false}}}, {"name": "index_to_string/hash_table", "op": "HashTableV2", "attr": {"shared_name": {"s": "aGFzaF90YWJsZV81YjY0YTYxYy1jZWFiLTRmMjktYWJiNi1iZTkwMjZhNTZjNGU="}, "key_dtype": {"type": "DT_INT64"}, "value_dtype": {"type": "DT_STRING"}, "use_node_name_sharing": {"b": false}, "container": {"s": ""}}}, {"name": "index_to_string/table_init/LookupTableImportV2", "op": "LookupTableImportV2", "input": ["index_to_string/hash_table", "index_to_string/Cast", "Const"], "attr": {"Tin": {"type": "DT_INT64"}, "Tout": {"type": "DT_STRING"}}}], "versions": {}}, "weightsManifest": [{"paths": ["group1-shard1of1.bin"], "weights": [{"name": "RGB/Const", "shape": [1, 79, 224, 224, 3], "dtype": "float32"}, {"name": "RGB/inception_i3d/Conv3d_1a_7x7/conv_3d/w", "shape": [7, 7, 7, 3, 64], "dtype": "float32"}, {"name": "RGB/inception_i3d/Mixed_5c/Branch_1/Conv3d_0a_1x1/conv_3d/convolution/merged_input", "shape": [1, 1, 1, 832, 192], "dtype": "float32"}, {"name": "RGB/inception_i3d/Mixed_5c/Branch_1/Conv3d_0a_1x1/batch_norm/batch_norm/sub", "shape": [1, 1, 1, 1, 192], "dtype": "float32"}, {"name": "RGB/inception_i3d/Conv3d_1a_7x7/batch_norm/batch_norm/Rsqrt", "shape": [1, 1, 1, 1, 64], "dtype": "float32"}, {"name": "RGB/inception_i3d/Conv3d_1a_7x7/batch_norm/batch_norm/sub", "shape": [1, 1, 1, 1, 64], "dtype": "float32"}, {"name": "RGB/inception_i3d/Mixed_4f/Branch_1/Conv3d_0a_1x1/conv_3d/convolution/merged_input", "shape": [1, 1, 1, 528, 160], "dtype": "float32"}, {"name": "RGB/inception_i3d/Mixed_4f/Branch_1/Conv3d_0a_1x1/batch_norm/batch_norm/sub", "shape": [1, 1, 1, 1, 160], "dtype": "float32"}, {"name": "RGB/inception_i3d/Conv3d_2b_1x1/conv_3d/convolution/merged_input", "shape": [1, 1, 1, 64, 64], "dtype": "float32"}, {"name": "RGB/inception_i3d/Conv3d_2b_1x1/batch_norm/batch_norm/sub", "shape": [1, 1, 1, 1, 64], "dtype": "float32"}, {"name": "RGB/inception_i3d/Conv3d_2c_3x3/conv_3d/convolution/merged_input", "shape": [3, 3, 3, 64, 192], "dtype": "float32"}, {"name": "RGB/inception_i3d/Conv3d_2c_3x3/batch_norm/batch_norm/sub", "shape": [1, 1, 1, 1, 192], "dtype": "float32"}, {"name": "RGB/inception_i3d/Mixed_3b/Branch_0/Conv3d_0a_1x1/conv_3d/convolution/merged_input", "shape": [1, 1, 1, 192, 64], "dtype": "float32"}, {"name": "RGB/inception_i3d/Mixed_3b/Branch_0/Conv3d_0a_1x1/batch_norm/batch_norm/sub", "shape": [1, 1, 1, 1, 64], "dtype": "float32"}, {"name": "RGB/inception_i3d/Mixed_4f/Branch_1/Conv3d_0b_3x3/conv_3d/convolution/merged_input", "shape": [3, 3, 3, 160, 320], "dtype": "float32"}, {"name": "RGB/inception_i3d/Mixed_4f/Branch_1/Conv3d_0b_3x3/batch_norm/batch_norm/sub", "shape": [1, 1, 1, 1, 320], "dtype": "float32"}, {"name": "RGB/inception_i3d/Mixed_3b/Branch_1/Conv3d_0a_1x1/conv_3d/convolution/merged_input", "shape": [1, 1, 1, 192, 96], "dtype": "float32"}, {"name": "RGB/inception_i3d/Mixed_3b/Branch_1/Conv3d_0a_1x1/batch_norm/batch_norm/sub", "shape": [1, 1, 1, 1, 96], "dtype": "float32"}, {"name": "RGB/inception_i3d/Mixed_5c/Branch_3/Conv3d_0b_1x1/conv_3d/convolution/merged_input", "shape": [1, 1, 1, 832, 128], "dtype": "float32"}, {"name": "RGB/inception_i3d/Mixed_3b/Branch_1/Conv3d_0b_3x3/conv_3d/convolution/merged_input", "shape": [3, 3, 3, 96, 128], "dtype": "float32"}, {"name": "RGB/inception_i3d/Mixed_3b/Branch_1/Conv3d_0b_3x3/batch_norm/batch_norm/sub", "shape": [1, 1, 1, 1, 128], "dtype": "float32"}, {"name": "RGB/inception_i3d/Mixed_5c/Branch_3/Conv3d_0b_1x1/batch_norm/batch_norm/sub", "shape": [1, 1, 1, 1, 128], "dtype": "float32"}, {"name": "RGB/inception_i3d/Mixed_3b/Branch_2/Conv3d_0a_1x1/conv_3d/convolution/merged_input", "shape": [1, 1, 1, 192, 16], "dtype": "float32"}, {"name": "RGB/inception_i3d/Mixed_3b/Branch_2/Conv3d_0a_1x1/batch_norm/batch_norm/sub", "shape": [1, 1, 1, 1, 16], "dtype": "float32"}, {"name": "RGB/inception_i3d/Mixed_4f/Branch_2/Conv3d_0a_1x1/conv_3d/convolution/merged_input", "shape": [1, 1, 1, 528, 32], "dtype": "float32"}, {"name": "RGB/inception_i3d/Mixed_3b/Branch_2/Conv3d_0b_3x3/conv_3d/convolution/merged_input", "shape": [3, 3, 3, 16, 32], "dtype": "float32"}, {"name": "RGB/inception_i3d/Mixed_3b/Branch_2/Conv3d_0b_3x3/batch_norm/batch_norm/sub", "shape": [1, 1, 1, 1, 32], "dtype": "float32"}, {"name": "RGB/inception_i3d/Mixed_4f/Branch_2/Conv3d_0a_1x1/batch_norm/batch_norm/sub", "shape": [1, 1, 1, 1, 32], "dtype": "float32"}, {"name": "RGB/inception_i3d/Mixed_3b/Branch_3/Conv3d_0b_1x1/conv_3d/convolution/merged_input", "shape": [1, 1, 1, 192, 32], "dtype": "float32"}, {"name": "RGB/inception_i3d/Mixed_3b/Branch_3/Conv3d_0b_1x1/batch_norm/batch_norm/sub", "shape": [1, 1, 1, 1, 32], "dtype": "float32"}, {"name": "RGB/inception_i3d/Mixed_3b/concat/axis", "shape": [], "dtype": "int32"}, {"name": "RGB/inception_i3d/Mixed_5c/Branch_1/Conv3d_0b_3x3/conv_3d/convolution/merged_input", "shape": [3, 3, 3, 192, 384], "dtype": "float32"}, {"name": "RGB/inception_i3d/Mixed_3c/Branch_0/Conv3d_0a_1x1/conv_3d/convolution/merged_input", "shape": [1, 1, 1, 256, 128], "dtype": "float32"}, {"name": "RGB/inception_i3d/Mixed_3c/Branch_0/Conv3d_0a_1x1/batch_norm/batch_norm/sub", "shape": [1, 1, 1, 1, 128], "dtype": "float32"}, {"name": "RGB/inception_i3d/Mixed_4f/Branch_2/Conv3d_0b_3x3/conv_3d/convolution/merged_input", "shape": [3, 3, 3, 32, 128], "dtype": "float32"}, {"name": "RGB/inception_i3d/Mixed_3c/Branch_1/Conv3d_0a_1x1/conv_3d/convolution/merged_input", "shape": [1, 1, 1, 256, 128], "dtype": "float32"}, {"name": "RGB/inception_i3d/Mixed_3c/Branch_1/Conv3d_0a_1x1/batch_norm/batch_norm/sub", "shape": [1, 1, 1, 1, 128], "dtype": "float32"}, {"name": "RGB/inception_i3d/Mixed_4f/Branch_2/Conv3d_0b_3x3/batch_norm/batch_norm/sub", "shape": [1, 1, 1, 1, 128], "dtype": "float32"}, {"name": "RGB/inception_i3d/Mixed_5c/Branch_1/Conv3d_0b_3x3/batch_norm/batch_norm/sub", "shape": [1, 1, 1, 1, 384], "dtype": "float32"}, {"name": "RGB/inception_i3d/Mixed_3c/Branch_1/Conv3d_0b_3x3/conv_3d/convolution/merged_input", "shape": [3, 3, 3, 128, 192], "dtype": "float32"}, {"name": "RGB/inception_i3d/Mixed_3c/Branch_1/Conv3d_0b_3x3/batch_norm/batch_norm/sub", "shape": [1, 1, 1, 1, 192], "dtype": "float32"}, {"name": "RGB/inception_i3d/Mixed_3c/Branch_2/Conv3d_0a_1x1/conv_3d/convolution/merged_input", "shape": [1, 1, 1, 256, 32], "dtype": "float32"}, {"name": "RGB/inception_i3d/Mixed_3c/Branch_2/Conv3d_0a_1x1/batch_norm/batch_norm/sub", "shape": [1, 1, 1, 1, 32], "dtype": "float32"}, {"name": "RGB/inception_i3d/Mixed_3c/Branch_2/Conv3d_0b_3x3/conv_3d/convolution/merged_input", "shape": [3, 3, 3, 32, 96], "dtype": "float32"}, {"name": "RGB/inception_i3d/Mixed_3c/Branch_2/Conv3d_0b_3x3/batch_norm/batch_norm/sub", "shape": [1, 1, 1, 1, 96], "dtype": "float32"}, {"name": "RGB/inception_i3d/Mixed_4f/Branch_3/Conv3d_0b_1x1/conv_3d/convolution/merged_input", "shape": [1, 1, 1, 528, 128], "dtype": "float32"}, {"name": "RGB/inception_i3d/Mixed_4f/Branch_3/Conv3d_0b_1x1/batch_norm/batch_norm/sub", "shape": [1, 1, 1, 1, 128], "dtype": "float32"}, {"name": "RGB/inception_i3d/Mixed_3c/Branch_3/Conv3d_0b_1x1/conv_3d/convolution/merged_input", "shape": [1, 1, 1, 256, 64], "dtype": "float32"}, {"name": "RGB/inception_i3d/Mixed_3c/Branch_3/Conv3d_0b_1x1/batch_norm/batch_norm/sub", "shape": [1, 1, 1, 1, 64], "dtype": "float32"}, {"name": "RGB/inception_i3d/Mixed_4b/Branch_0/Conv3d_0a_1x1/conv_3d/convolution/merged_input", "shape": [1, 1, 1, 480, 192], "dtype": "float32"}, {"name": "RGB/inception_i3d/Mixed_4b/Branch_0/Conv3d_0a_1x1/batch_norm/batch_norm/sub", "shape": [1, 1, 1, 1, 192], "dtype": "float32"}, {"name": "RGB/inception_i3d/Logits/Conv3d_0c_1x1/conv_3d/w", "shape": [1, 1, 1, 1024, 400], "dtype": "float32"}, {"name": "RGB/inception_i3d/Mixed_4b/Branch_1/Conv3d_0a_1x1/conv_3d/convolution/merged_input", "shape": [1, 1, 1, 480, 96], "dtype": "float32"}, {"name": "RGB/inception_i3d/Mixed_4b/Branch_1/Conv3d_0a_1x1/batch_norm/batch_norm/sub", "shape": [1, 1, 1, 1, 96], "dtype": "float32"}, {"name": "RGB/inception_i3d/Mixed_5b/Branch_0/Conv3d_0a_1x1/conv_3d/convolution/merged_input", "shape": [1, 1, 1, 832, 256], "dtype": "float32"}, {"name": "RGB/inception_i3d/Mixed_4b/Branch_1/Conv3d_0b_3x3/conv_3d/convolution/merged_input", "shape": [3, 3, 3, 96, 208], "dtype": "float32"}, {"name": "RGB/inception_i3d/Mixed_4b/Branch_1/Conv3d_0b_3x3/batch_norm/batch_norm/sub", "shape": [1, 1, 1, 1, 208], "dtype": "float32"}, {"name": "RGB/inception_i3d/Mixed_5b/Branch_0/Conv3d_0a_1x1/batch_norm/batch_norm/sub", "shape": [1, 1, 1, 1, 256], "dtype": "float32"}, {"name": "RGB/inception_i3d/Mixed_4b/Branch_2/Conv3d_0a_1x1/conv_3d/convolution/merged_input", "shape": [1, 1, 1, 480, 16], "dtype": "float32"}, {"name": "RGB/inception_i3d/Mixed_4b/Branch_2/Conv3d_0a_1x1/batch_norm/batch_norm/sub", "shape": [1, 1, 1, 1, 16], "dtype": "float32"}, {"name": "RGB/inception_i3d/Mixed_4b/Branch_2/Conv3d_0b_3x3/conv_3d/convolution/merged_input", "shape": [3, 3, 3, 16, 48], "dtype": "float32"}, {"name": "RGB/inception_i3d/Mixed_4b/Branch_2/Conv3d_0b_3x3/batch_norm/batch_norm/sub", "shape": [1, 1, 1, 1, 48], "dtype": "float32"}, {"name": "RGB/inception_i3d/Mixed_5c/Branch_2/Conv3d_0a_1x1/conv_3d/convolution/merged_input", "shape": [1, 1, 1, 832, 48], "dtype": "float32"}, {"name": "RGB/inception_i3d/Mixed_4b/Branch_3/Conv3d_0b_1x1/conv_3d/convolution/merged_input", "shape": [1, 1, 1, 480, 64], "dtype": "float32"}, {"name": "RGB/inception_i3d/Mixed_4b/Branch_3/Conv3d_0b_1x1/batch_norm/batch_norm/sub", "shape": [1, 1, 1, 1, 64], "dtype": "float32"}, {"name": "RGB/inception_i3d/Mixed_5b/Branch_1/Conv3d_0a_1x1/conv_3d/convolution/merged_input", "shape": [1, 1, 1, 832, 160], "dtype": "float32"}, {"name": "RGB/inception_i3d/Mixed_5b/Branch_1/Conv3d_0a_1x1/batch_norm/batch_norm/sub", "shape": [1, 1, 1, 1, 160], "dtype": "float32"}, {"name": "RGB/inception_i3d/Mixed_4c/Branch_0/Conv3d_0a_1x1/conv_3d/convolution/merged_input", "shape": [1, 1, 1, 512, 160], "dtype": "float32"}, {"name": "RGB/inception_i3d/Mixed_4c/Branch_0/Conv3d_0a_1x1/batch_norm/batch_norm/sub", "shape": [1, 1, 1, 1, 160], "dtype": "float32"}, {"name": "RGB/inception_i3d/Mixed_5c/Branch_2/Conv3d_0a_1x1/batch_norm/batch_norm/sub", "shape": [1, 1, 1, 1, 48], "dtype": "float32"}, {"name": "RGB/inception_i3d/Mixed_4c/Branch_1/Conv3d_0a_1x1/conv_3d/convolution/merged_input", "shape": [1, 1, 1, 512, 112], "dtype": "float32"}, {"name": "RGB/inception_i3d/Mixed_4c/Branch_1/Conv3d_0a_1x1/batch_norm/batch_norm/sub", "shape": [1, 1, 1, 1, 112], "dtype": "float32"}, {"name": "RGB/inception_i3d/Mixed_4c/Branch_1/Conv3d_0b_3x3/conv_3d/convolution/merged_input", "shape": [3, 3, 3, 112, 224], "dtype": "float32"}, {"name": "RGB/inception_i3d/Mixed_4c/Branch_1/Conv3d_0b_3x3/batch_norm/batch_norm/sub", "shape": [1, 1, 1, 1, 224], "dtype": "float32"}, {"name": "RGB/inception_i3d/Mixed_5b/Branch_1/Conv3d_0b_3x3/conv_3d/convolution/merged_input", "shape": [3, 3, 3, 160, 320], "dtype": "float32"}, {"name": "RGB/inception_i3d/Mixed_5b/Branch_1/Conv3d_0b_3x3/batch_norm/batch_norm/sub", "shape": [1, 1, 1, 1, 320], "dtype": "float32"}, {"name": "RGB/inception_i3d/Mixed_4c/Branch_2/Conv3d_0a_1x1/conv_3d/convolution/merged_input", "shape": [1, 1, 1, 512, 24], "dtype": "float32"}, {"name": "RGB/inception_i3d/Mixed_4c/Branch_2/Conv3d_0a_1x1/batch_norm/batch_norm/sub", "shape": [1, 1, 1, 1, 24], "dtype": "float32"}, {"name": "RGB/inception_i3d/Mixed_4c/Branch_2/Conv3d_0b_3x3/conv_3d/convolution/merged_input", "shape": [3, 3, 3, 24, 64], "dtype": "float32"}, {"name": "RGB/inception_i3d/Mixed_4c/Branch_2/Conv3d_0b_3x3/batch_norm/batch_norm/sub", "shape": [1, 1, 1, 1, 64], "dtype": "float32"}, {"name": "RGB/inception_i3d/Logits/Conv3d_0c_1x1/conv_3d/Reshape", "shape": [1, 1, 1, 1, 400], "dtype": "float32"}, {"name": "RGB/inception_i3d/Mixed_4c/Branch_3/Conv3d_0b_1x1/conv_3d/convolution/merged_input", "shape": [1, 1, 1, 512, 64], "dtype": "float32"}, {"name": "RGB/inception_i3d/Mixed_4c/Branch_3/Conv3d_0b_1x1/batch_norm/batch_norm/sub", "shape": [1, 1, 1, 1, 64], "dtype": "float32"}, {"name": "RGB/inception_i3d/Mixed_5b/Branch_2/Conv3d_0a_1x1/conv_3d/convolution/merged_input", "shape": [1, 1, 1, 832, 32], "dtype": "float32"}, {"name": "RGB/inception_i3d/Mixed_5b/Branch_2/Conv3d_0a_1x1/batch_norm/batch_norm/sub", "shape": [1, 1, 1, 1, 32], "dtype": "float32"}, {"name": "RGB/inception_i3d/Mixed_4d/Branch_0/Conv3d_0a_1x1/conv_3d/convolution/merged_input", "shape": [1, 1, 1, 512, 128], "dtype": "float32"}, {"name": "RGB/inception_i3d/Mixed_4d/Branch_0/Conv3d_0a_1x1/batch_norm/batch_norm/sub", "shape": [1, 1, 1, 1, 128], "dtype": "float32"}, {"name": "RGB/inception_i3d/Mixed_4d/Branch_1/Conv3d_0a_1x1/conv_3d/convolution/merged_input", "shape": [1, 1, 1, 512, 128], "dtype": "float32"}, {"name": "RGB/inception_i3d/Mixed_4d/Branch_1/Conv3d_0a_1x1/batch_norm/batch_norm/sub", "shape": [1, 1, 1, 1, 128], "dtype": "float32"}, {"name": "RGB/inception_i3d/Mixed_4d/Branch_1/Conv3d_0b_3x3/conv_3d/convolution/merged_input", "shape": [3, 3, 3, 128, 256], "dtype": "float32"}, {"name": "RGB/inception_i3d/Mixed_4d/Branch_1/Conv3d_0b_3x3/batch_norm/batch_norm/sub", "shape": [1, 1, 1, 1, 256], "dtype": "float32"}, {"name": "RGB/inception_i3d/Mixed_5b/Branch_2/Conv3d_0a_3x3/conv_3d/convolution/merged_input", "shape": [3, 3, 3, 32, 128], "dtype": "float32"}, {"name": "RGB/inception_i3d/Mixed_5b/Branch_2/Conv3d_0a_3x3/batch_norm/batch_norm/sub", "shape": [1, 1, 1, 1, 128], "dtype": "float32"}, {"name": "RGB/inception_i3d/Mixed_4d/Branch_2/Conv3d_0a_1x1/conv_3d/convolution/merged_input", "shape": [1, 1, 1, 512, 24], "dtype": "float32"}, {"name": "RGB/inception_i3d/Mixed_4d/Branch_2/Conv3d_0a_1x1/batch_norm/batch_norm/sub", "shape": [1, 1, 1, 1, 24], "dtype": "float32"}, {"name": "RGB/inception_i3d/Mixed_5c/Branch_2/Conv3d_0b_3x3/conv_3d/convolution/merged_input", "shape": [3, 3, 3, 48, 128], "dtype": "float32"}, {"name": "RGB/inception_i3d/Mixed_4d/Branch_2/Conv3d_0b_3x3/conv_3d/convolution/merged_input", "shape": [3, 3, 3, 24, 64], "dtype": "float32"}, {"name": "RGB/inception_i3d/Mixed_4d/Branch_2/Conv3d_0b_3x3/batch_norm/batch_norm/sub", "shape": [1, 1, 1, 1, 64], "dtype": "float32"}, {"name": "RGB/inception_i3d/Mixed_5c/Branch_2/Conv3d_0b_3x3/batch_norm/batch_norm/sub", "shape": [1, 1, 1, 1, 128], "dtype": "float32"}, {"name": "RGB/inception_i3d/Mixed_4d/Branch_3/Conv3d_0b_1x1/conv_3d/convolution/merged_input", "shape": [1, 1, 1, 512, 64], "dtype": "float32"}, {"name": "RGB/inception_i3d/Mixed_4d/Branch_3/Conv3d_0b_1x1/batch_norm/batch_norm/sub", "shape": [1, 1, 1, 1, 64], "dtype": "float32"}, {"name": "RGB/inception_i3d/Mixed_5b/Branch_3/Conv3d_0b_1x1/conv_3d/convolution/merged_input", "shape": [1, 1, 1, 832, 128], "dtype": "float32"}, {"name": "RGB/inception_i3d/Mixed_4e/Branch_0/Conv3d_0a_1x1/conv_3d/convolution/merged_input", "shape": [1, 1, 1, 512, 112], "dtype": "float32"}, {"name": "RGB/inception_i3d/Mixed_4e/Branch_0/Conv3d_0a_1x1/batch_norm/batch_norm/sub", "shape": [1, 1, 1, 1, 112], "dtype": "float32"}, {"name": "RGB/inception_i3d/Mixed_5b/Branch_3/Conv3d_0b_1x1/batch_norm/batch_norm/sub", "shape": [1, 1, 1, 1, 128], "dtype": "float32"}, {"name": "RGB/inception_i3d/Mixed_4e/Branch_1/Conv3d_0a_1x1/conv_3d/convolution/merged_input", "shape": [1, 1, 1, 512, 144], "dtype": "float32"}, {"name": "RGB/inception_i3d/Mixed_4e/Branch_1/Conv3d_0a_1x1/batch_norm/batch_norm/sub", "shape": [1, 1, 1, 1, 144], "dtype": "float32"}, {"name": "RGB/inception_i3d/Mean/reduction_indices", "shape": [], "dtype": "int32"}, {"name": "RGB/inception_i3d/Mixed_4e/Branch_1/Conv3d_0b_3x3/conv_3d/convolution/merged_input", "shape": [3, 3, 3, 144, 288], "dtype": "float32"}, {"name": "RGB/inception_i3d/Mixed_4e/Branch_1/Conv3d_0b_3x3/batch_norm/batch_norm/sub", "shape": [1, 1, 1, 1, 288], "dtype": "float32"}, {"name": "TopKV2/k", "shape": [], "dtype": "int32"}, {"name": "RGB/inception_i3d/Mixed_4e/Branch_2/Conv3d_0a_1x1/conv_3d/convolution/merged_input", "shape": [1, 1, 1, 512, 32], "dtype": "float32"}, {"name": "RGB/inception_i3d/Mixed_4e/Branch_2/Conv3d_0a_1x1/batch_norm/batch_norm/sub", "shape": [1, 1, 1, 1, 32], "dtype": "float32"}, {"name": "RGB/inception_i3d/Mixed_5c/Branch_0/Conv3d_0a_1x1/conv_3d/convolution/merged_input", "shape": [1, 1, 1, 832, 384], "dtype": "float32"}, {"name": "RGB/inception_i3d/Mixed_5c/Branch_0/Conv3d_0a_1x1/batch_norm/batch_norm/sub", "shape": [1, 1, 1, 1, 384], "dtype": "float32"}, {"name": "RGB/inception_i3d/Mixed_4e/Branch_2/Conv3d_0b_3x3/conv_3d/convolution/merged_input", "shape": [3, 3, 3, 32, 64], "dtype": "float32"}, {"name": "RGB/inception_i3d/Mixed_4e/Branch_2/Conv3d_0b_3x3/batch_norm/batch_norm/sub", "shape": [1, 1, 1, 1, 64], "dtype": "float32"}, {"name": "RGB/inception_i3d/Mixed_4e/Branch_3/Conv3d_0b_1x1/conv_3d/convolution/merged_input", "shape": [1, 1, 1, 512, 64], "dtype": "float32"}, {"name": "RGB/inception_i3d/Mixed_4e/Branch_3/Conv3d_0b_1x1/batch_norm/batch_norm/sub", "shape": [1, 1, 1, 1, 64], "dtype": "float32"}, {"name": "index_to_string/Const", "shape": [], "dtype": "string"}, {"name": "RGB/inception_i3d/Mixed_4f/Branch_0/Conv3d_0a_1x1/conv_3d/convolution/merged_input", "shape": [1, 1, 1, 528, 256], "dtype": "float32"}, {"name": "RGB/inception_i3d/Mixed_4f/Branch_0/Conv3d_0a_1x1/batch_norm/batch_norm/sub", "shape": [1, 1, 1, 1, 256], "dtype": "float32"}, {"name": "Const", "shape": [400], "dtype": "string"}, {"name": "index_to_string/Size", "shape": [], "dtype": "int32"}, {"name": "index_to_string/range/start", "shape": [], "dtype": "int32"}, {"name": "index_to_string/range/delta", "shape": [], "dtype": "int32"}]}]}